TrainedModel/act_weights.pkl (torch, 311863 bytes, 7 tensors)

a_std_log f4 [1, 2]
-0.17099577 -0.41975617
00000000: 8419 2fbe 48ea d6be

net.0.weight f4 [256, 42]
-0.029212167 -0.009116004 0.10593649 0.10401534 0.08562698 -0.1748292 -0.13126682 0.24298763
0.15048039 0.029583016 0.11148323 -0.042304043 -0.1313505 -0.11838628 -0.10374346 0.09981435
0.12911998 0.12368625 0.03165353 -0.007132459 -0.055143014 -0.120036274 0.16728333 0.0040841866
-0.099398404 0.055986583 0.108769245 -0.05365106 -0.012856104 0.0038711114 -0.16511637 0.07854916
-0.08841915 0.03217175 -0.049357206 -0.13996287 0.078244075 0.12285118 0.041625496 0.06154904
-0.07593618 0.11213496 -0.0377714 -0.15214434 -0.12473333 0.063857265 -0.054084342 -0.08418103
0.077136464 -0.09929805 -0.054969117 0.071050465 -0.055784237 -0.045429848 0.024114043 0.10418351
0.102400966 -0.093768604 -0.06293295 0.036652777 -0.12646323 0.082269 0.05328823 -0.06700196
-0.05482667 0.003975613 0.08727618 -0.0013892598 -0.15295543 0.14359078 0.09656181 -0.019130347
-0.085230984 -0.077943064 -0.13570644 0.10787797 -0.08049111 -0.15404937 -0.024742734 -0.16223836
-0.015560199 -0.05492972 0.07049802 -0.035000317 0.032928698 -0.0038154272 -0.07795846 0.10073164
0.28126583 -0.25293782 0.06065225 0.16521731 0.30370533 -0.016412225 -0.031911694 -0.027176306
0.037613127 0.14686397 -0.018082302 -0.14730975 -0.13032155 0.05895452 0.10160477 0.013143369
-0.14728539 -0.09552388 -0.08974553 0.09486113 -0.072648 -0.08902719 -0.06818908 -0.12828046
-0.12208001 -0.015045115 0.008156224 -0.037507202 0.11350237 0.13686317 0.0071236584 0.12267235
0.13341112 -0.11017918 0.0944181 -0.057203047 0.0019268984 -0.08483618 0.060526848 -0.15270579
0.09575887 0.0467602 -0.063512184 -0.024162337 0.048850268 0.10069023 -0.017489448 -0.114829406
-0.13406856 -0.1513007 0.12616749 0.15056725 -0.06679975 0.0384122 -0.10960671 0.008964762
-0.031302877 0.019791305 0.042876363 0.01732029 0.014702782 -0.1277754 -0.052994065 -0.0583715
0.13079183 0.047051013 0.14488287 0.12770225 -0.14807095 0.0762295 0.10881354 0.15413822
0.11848314 -0.018267661 -0.051537633 -0.15218543 -0.06906718 0.034010947 0.04601629 0.010311663
-0.083870344 -0.15428759 -0.144873 0.12612365 -0.13459256 -0.048508883 0.0157789 -0.123346806
0.047740147 -0.08986932 -0.053642377 -0.14502253 0.043141544 0.037791 0.13226418 0.0016716272
0.07236044 -0.09284417 0.07553169 -0.029319964 -0.05490657 -0.039148994 -0.07435744 -0.052985437
-0.050416768 -0.077095315 0.15017878 0.05764155 0.13063185 -0.11107637 0.03669606 0.049922585
-0.033028074 -0.12651312 -0.05109705 0.0062993616 -0.085463606 0.057819188 0.115697846 -0.05768057
-0.08407233 0.089337796 0.17265968 0.039888144 0.0012901336 0.04868304 0.00450629 -0.06707608
-0.07014056 -0.036345202 -0.019233037 -0.12048091 -0.19839954 0.076907486 -0.18390127 -0.12381581
-0.08986402 -0.0756313 -0.17872818 -0.15818731 -0.008310871 0.040223345 -0.14875901 -0.00951808
-0.013954609 -0.07438697 -0.09973461 -0.024777906 0.009804214 -0.08841348 -0.030555816 -0.072003506
-0.064640895 0.21036014 -0.0716604 0.07678361 -0.07502166 0.078078784 -0.0874763 -0.109459914
-0.032998573 0.09148889 -0.108725525 0.06776737 -0.2148728 0.13568176 0.07544752 0.2103293
00000000: 5b4e efbc 4b5b 15bc 3bf5 d83d ff05 d53d
00000010: 335d af3d 6d06 33be cf6a 06be c0d1 783e
00000020: 8817 1a3e 1558 f23c 5251 e43d 0147 2dbd
00000030: bf80 06be 8274 f2bd 7377 d4bd 776b cc3d
00000040: 0738 043e 374f fd3d 22a7 013d 67b7 e9bb
00000050: a4dd 61bd 94d5 f5bd 524c 2b3e a4d4 853b
00000060: 6491 cbbd 3052 653d 69c2 de3d 37c1 5bbd
00000070: 69a2 52bc 79b2 7d3b 4414 29be 62de a03d
00000080: 1915 b5bd 86c6 033d c82a 4abd 6d52 0fbe
00000090: 6e3e a03d 6699 fb3d 7f7f 2a3d d91a 7c3d
000000a0: 6e84 9bbd 04a7 e53d 2fb6 1abd bacb 1bbe
000000b0: 3074 ffbd 99c7 823d 8b87 5dbd 1b67 acbd
000000c0: b9f9 9d3d c75c cbbd 4c27 61bd e882 913d
000000d0: 037e 64bd a614 3abd d08a c53c 2a5e d53d
000000e0: 99b7 d13d c109 c0bd fee2 80bd 3921 163d
000000f0: 947f 01be a67c a83d c244 5a3d 5338 89bd
00000100: ee91 60bd dc45 823b dbbd b23d d317 b6ba
00000110: 59a0 1cbe 7609 133e 33c2 c53d 3fb7 9cbc
00000120: 958d aebd 9da0 9fbd a1f6 0abe 20ef dc3d
00000130: 86d8 a4bd 1ebf 1dbe 46b1 cabc d021 26be
00000140: 34f0 7ebc fcfd 60bd 4461 903d 7e5c 0fbd
00000150: 3ee0 063d 3f0c 7abb afa8 9fbd 644c ce3d
00000160: 1302 903e 1181 81be 7e6e 783d ba2e 293e
00000170: 447f 9b3e ee72 86bc d6b5 02bd d8a0 debc
00000180: 3910 1a3d 8263 163e 5621 94bc 5ed8 16be
00000190: 0373 05be 4b7a 713d 2916 d03d 4957 573c
000001a0: fbd1 16be 06a2 c3bd 81cc b7bd 8d46 c23d
000001b0: 7ac8 94bd e353 b6bd b7a6 8bbd f45b 03be
000001c0: 1605 fabd c97f 76bc afa1 053c 27a1 19bd
000001d0: ee73 e83d dc25 0c3e 946d e93b a43b fb3d
000001e0: ed9c 083e 9fa5 e1bd 475e c13d be4d 6abd
000001f0: fb8f fc3a 97be adbd 00eb 773d e85e 1cbe
00000200: 3a1d c43d a087 3f3d ad12 82bd 18f0 c5bc
00000210: 3817 483d ae36 ce3d 0846 8fbc ae2b ebbd
00000220: 4549 09be 92ee 1abe 0d32 013e 4d2e 1a3e
00000230: 4fce 88bd 1c56 1d3d 7c79 e0bd f0e0 123c
00000240: 7237 00bd 6021 a23c 209f 2f3d 48e3 8d3c
00000250: f0e3 703c 8ed7 02be 4e10 59bd f416 6fbd
00000260: 4bee 053e 90b8 403d 2d5c 143e 61c4 023e
00000270: e99f 17be 361e 9c3d a2d9 de3d 69d6 1d3e
00000280: 4aa7 f23d 10a6 95bc 2019 53bd 7fd6 1bbe
00000290: 1873 8dbd 104f 0b3d 947b 3c3d 40f2 283c
000002a0: 37c4 abbd 91fd 1dbe 9659 14be 8f26 013e
000002b0: a2d2 09be 40b1 46bd c042 813c 409d fcbd
000002c0: 2c8b 433d 680d b8bd 1cb8 5bbd c980 14be
000002d0: 30b5 303d bcca 1a3d 4370 073e 801a db3a
000002e0: b631 943d 1625 bebd 5cb0 9a3d 6c30 f0bc
000002f0: b6e5 60bd b25a 20bd b748 98bd 4207 59bd
00000300: d081 4ebd 26e4 9dbd 77c8 193e 8c19 6c3d
00000310: 5bc4 053e 027c e3bd 9c4e 163d a07b 4c3d
00000320: 7248 07bd a88c 01be 244b 51bd e06a ce3b
00000330: 8b07 afbd d0d3 6c3d fef2 ec3d 7642 6cbd
00000340: 1d2e acbd bcf6 b63d b3cd 303e c061 233d
00000350: b319 a93a de67 473d 80a9 933b 2f5f 89bd
00000360: dba5 8fbd b5de 14bd 9a8e 9dbc b2be f6bd
00000370: 4029 4bbe ac81 9d3d 9d50 3cbe 2593 fdbd
00000380: a10a b8bd 95e4 9abd 8504 37be dbfb 21be
00000390: 522a 08bc 3cc1 243d 4854 18be b9f1 1bbc
000003a0: dfa1 64bc 3258 98bd a941 ccbd 09fb cabc
000003b0: dba1 203c 2012 b5bd 3150 fabc 9376 93bd
000003c0: 7262 84bd a668 573e b0c2 92bd ba40 9d3d
000003d0: f5a4 99bd c5e7 9f3d c626 b3bd 852c e0bd
000003e0: 8329 07bd 875e bb3d 7dab debd 9ec9 8a3d
000003f0: 9e07 5cbe 29f0 0a3e 3b84 9a3d 9060 573e

net.0.bias f4 [256]
0.055244196 -0.14456911 -0.08804681 0.08654244 -0.08928199 0.0050493176 0.014072874 -0.07710751
0.02678928 0.08050026 0.11553967 0.09404679 0.08255833 -0.023215428 -0.10734128 -0.05551696
-0.06415866 -0.09943534 0.08146178 -0.0711455 0.12728924 -0.15932256 -0.18779227 0.02101514
-0.15324438 -0.14935082 -0.1034661 0.12669313 0.07864583 -0.0679974 0.080443144 0.09842097
0.015995953 0.11032501 0.04086305 0.0482262 -0.027819453 0.094528 -0.14467463 0.040854853
0.103294864 0.08358995 0.1066962 -0.04846942 0.064633705 -0.0117173195 -0.027274013 0.07001009
-0.1285559 -0.15683326 0.023321388 -0.036819287 -0.16427663 0.046948887 -0.033225 -0.032884933
-0.13199487 -0.01878674 -0.09580879 0.057375535 0.05056093 -0.16160898 -0.09021852 -0.16800477
-0.15289155 -0.00017778593 -0.06899798 0.016527496 -0.08617274 -0.11719244 -0.028570993 -0.02636845
-0.028965931 0.02621647 0.05695173 0.1264907 0.059528857 -0.1342862 0.05861877 0.008201322
0.11451741 0.02655648 -0.025872177 -0.047338113 0.012052909 0.07825887 0.15505277 0.09522959
-0.17840701 -0.093593046 -0.11717789 -0.067989 0.024278887 -0.024039546 -0.15571047 -0.09600625
0.11094517 0.036575593 -0.058680516 0.087146826 -0.053492688 -0.074443415 -0.1386035 0.025312912
-0.04810346 -0.016298663 -0.111529715 0.14762941 0.0007300583 0.09555568 0.011947008 0.12022128
0.011890536 0.044053823 -0.0008156838 -0.018031135 -0.08360599 -0.047816303 0.1152635 0.07607324
0.043108575 0.1517232 0.13369209 -0.06982349 -0.15192457 -0.016526168 -0.098938406 0.094881795
0.040647637 -0.047296703 0.0076101264 -0.056273818 -0.031165607 -0.030951992 -0.0010699396 0.090352364
0.13797338 -0.090170376 0.08266078 0.10996105 0.14484435 0.0971931 -0.10420028 0.064898655
-0.1551564 -0.01702398 -0.17645401 0.0131956935 -0.17491241 -0.034001593 -0.07095267 -0.02891427
0.10520272 -0.15174156 -0.17929399 0.08224823 0.040020593 -0.17724803 -0.13163826 -0.078153946
0.034646332 -0.13378564 0.10010312 -0.078531265 -0.100377284 0.099976696 -0.11468716 0.073895305
-0.058335096 -0.13613525 -0.08127718 0.120327145 -0.0051579657 -0.05427262 0.0010068676 0.113663346
-0.13390714 0.023942202 -0.15149121 0.07690492 -0.14432183 -0.13345726 0.059202768 -0.056553654
-0.061347786 0.016364442 -0.15270443 -0.12011193 -0.14335082 0.1252138 -0.07840061 -0.06743879
-0.13210645 0.023509443 0.06487309 0.07083081 -0.1448174 0.030893788 0.1281584 -0.027186569
-0.1357684 0.11691577 -0.18172932 -0.039574362 -0.11761257 0.014946806 -0.028858162 0.06958418
-0.038001973 0.13551232 0.07749569 0.09327174 -0.14486766 -0.027982805 0.12458324 -0.1508078
-0.1002957 0.109452434 0.0063541136 0.06337401 0.11492255 -0.025096929 0.065754786 -0.08859934
-0.093975574 -0.017870879 -0.12711172 -0.02548755 0.13290192 -0.14057459 0.15480892 0.030940315
0.054732304 -0.016750902 -0.103211276 -0.07256631 -0.07678831 -0.07080524 -0.14132339 0.02789564
0.06185552 0.07599527 -0.009479209 -0.16010575 0.11258061 0.10314195 -0.006479442 -0.07073787
0.11223133 0.11367686 0.04010384 0.06690149 -0.018527705 -0.0003153316 -0.073568255 -0.14904946
00000000: bd47 623d ed09 14be e351 b4bd 2a3d b13d
00000010: 7ad9 b6bd bf74 a53b e991 663c 8bea 9dbd
00000020: 3175 db3c 52dd a43d 10a0 ec3d 9a9b c03d
00000030: 5714 a93d 482e bebc bfd5 dbbd c065 63bd
00000040: 9e65 83bd c1a4 cbbd 6fd5 a63d bbb4 91bd
00000050: 1c58 023e 7425 23be 9e4c 40be f127 ac3c
00000060: 18ec 1cbe 6cef 18be 09e6 d3bd d8bb 013e
00000070: 1111 a13d 3942 8bbd 60bf a43d ef90 c93d
00000080: f209 833c 14f2 e13d 0360 273d d688 453d
00000090: 9fe5 e3bc e597 c13d 9625 14be 6b57 273d
000000a0: 428c d33d 3531 ab3d 8a83 da3d df87 46bd
000000b0: ad5e 843d 00fa 3fbc c06d dfbc 7361 8f3d
000000c0: 28a4 03be e698 20be 7f0c bf3c d2cf 16bd
000000d0: 2238 28be 7a4d 403d f016 08bd 5ab2 06bd
000000e0: aa29 07be a6e6 99bc 6637 c4bd 9c02 6b3d
000000f0: fa18 4f3d d37c 25be 7dc4 b8bd 7109 2cbe
00000100: 9a8f 1cbe 0c6c 3ab9 d04e 8dbd ac64 873c
00000110: 557b b0bd 9702 f0bd b70d eabc a602 d8bc
00000120: f649 edbc ecc3 d63c 3846 693d c786 013e
00000130: 88d4 733d 5282 09be 3c1a 703d d65e 063c
00000140: 1b88 ea3d fa8c d93c e3f1 d3bc 9ce5 41bd
00000150: 9079 453c 3046 a03d 27c6 1e3e bb07 c33d
00000160: 54b0 36be b6ad bfbd f6fa efbd d13d 8bbd
00000170: 84e4 c63c 95ee c4bc 9172 1fbe ed9e c4bd
00000180: 3937 e33d 4ad0 153d fb5a 70bd 097a b23d
00000190: 261b 5bbd ca75 98bd 13ee 0dbe 065d cf3c
000001a0: 2208 45bd c684 85bc b169 e4bd 2a2c 173e
000001b0: 6261 3f3a b2b2 c33d 62bd 433c 9336 f63d
000001c0: 86d0 423c c871 343d 9dd3 55ba 08b6 93bc
000001d0: 9e39 abbd 07db 43bd 450f ec3d 49cc 9b3d
000001e0: 9e92 303d 545d 1b3e 94e6 083e 9eff 8ebd
000001f0: 1d92 1bbe e361 87bc 38a0 cabd 6351 c23d
00000200: 237e 263d 30ba 41bd 5e5e f93b 607f 66bd
00000210: 044f ffbc 088f fdbc 373d 8cba a90a b93d
00000220: e548 0d3e 3fab b8bd 0e4a a93d 4233 e13d
00000230: 1452 143e 2d0d c73d f566 d5bd 96e9 843d
00000240: 52e1 1ebe e075 8bbc 5cb0 34be c032 583c
00000250: 3d1c 33be 4145 0bbd a24f 91bd 9fdd ecbc
00000260: 8674 d73d 2462 1bbe d898 37be c371 a83d
00000270: a2ec 233d 8280 35be 2ecc 06be 2d0f a0bd
00000280: 50e9 0d3d 1aff 08be dd02 cd3d 00d5 a0bd
00000290: 9b92 cdbd 95c0 cc3d 1ae1 eabd 6c56 973d
000002a0: c8f0 6ebd 0a67 0bbe a674 a6bd 146e f63d
000002b0: 2704 a9bb f74c 5ebd dff8 833a 54c8 e83d
000002c0: f41e 09be 7022 c43c 8320 1bbe 5480 9d3d
000002d0: 1ac9 13be 05a9 08be 9a7e 723d cea4 67bd
000002e0: d147 7bbd b90e 863c 8d5e 1cbe 3efd f5bd
000002f0: 8fca 12be 0c38 003e 8090 a0bd 591d 8abd
00000300: ea46 07be e096 c03c 2fdc 843d be0f 913d
00000310: 034b 14be f814 fd3c f53b 033e 5eb6 debc
00000320: df06 0bbe 8971 ef3d 4017 3abe ba18 22bd
00000330: dcde f0bd 73e3 743c f467 ecbc 2782 8e3d
00000340: f5a7 1bbd bec3 0a3e 0fb6 9e3d 4105 bf3d
00000350: 3058 14be 323c e5bc 7f25 ff3d 5c6d 1abe
00000360: d567 cdbd 9928 e03d 2b36 d03b 3cca 813d
00000370: 845c eb3d 1398 cdbc 72aa 863d 9273 b5bd
00000380: 4476 c0bd f365 92bc 9329 02be 44cb d0bc
00000390: 7117 083e c9f2 0fbe 3b86 1e3e 8b76 fd3c
000003a0: fb2e 603d 3039 89bc 6f60 d3bd a59d 94bd
000003b0: 3143 9dbd 5602 91bd 14b7 10be 6685 e43c
000003c0: 375c 7d3d 68a3 9b3d af4e 1bbc c3f2 23be
000003d0: aa90 e63d 163c d33d 8051 d4bb 04df 90bd
000003e0: 8ad9 e53d 6acf e83d ed43 243d a603 893d
000003f0: 6ac7 97bc 1753 a5b9 f4aa 96bd 6ca0 18be

net.2.weight f4 [256, 256]
-0.10250773 0.037717167 0.041925702 -0.06231931 -0.01031971 -0.06808717 0.035328697 -0.0039761364
-0.03368484 -0.0027317468 -0.0002061953 0.03267175 0.04393835 -0.04338788 -0.048899088 -0.06232818
0.07838262 0.05921109 0.0021671252 0.13520513 -0.056925885 -0.023139292 0.026944863 0.022004487
-0.014198863 -0.070032015 -0.040024072 -0.04985356 -0.009812063 0.086464524 -0.09217633 0.029680483
0.03034412 0.08955398 0.033272773 0.03903686 0.042971943 0.036945168 0.08304514 -0.01661629
-0.020719297 -0.1621585 0.02538542 0.018387584 0.045896444 0.012801297 -0.046087414 0.10239685
0.025425306 -0.017831383 -0.07907994 -0.0038163324 0.08846443 0.017761787 -0.031356383 0.02753748
0.04285411 -0.015415942 0.03890643 0.018245505 0.01530027 -0.013248238 0.04625423 -0.042632967
0.042104304 0.07321937 -0.04327472 -0.0072814454 0.034456477 -0.047077958 0.011362106 0.025833452
-0.01887953 0.025284154 0.025548348 0.03785913 0.06012564 -0.019402876 0.119933225 -0.011511615
-0.02413323 -0.07832553 -0.0015689859 0.032989617 0.041818835 -0.076899625 -0.19885626 0.04013654
-0.09268612 -0.04061594 0.02362598 -0.021262648 -0.014281265 -0.0063967775 0.02591488 -0.06580205
-0.049825132 0.029866844 -0.01502633 0.02306383 0.089828886 0.021361982 0.026180366 -0.032749567
-0.014810608 0.013174998 -0.032521956 0.036077775 -0.17790252 -0.040034268 0.04618606 0.10203803
0.0838516 -0.02324724 0.05319289 -0.043158658 -0.05695043 0.05921538 -0.006741172 0.0007032454
-0.037763704 0.06214352 -0.04725674 -0.07704526 0.020657813 -0.07371287 0.02922228 -0.024164598
-0.0147336535 -0.021940487 -0.03501011 -0.050302986 -0.081125975 -0.0022342354 0.01598297 -0.024971835
0.03839571 -0.031038564 0.048606515 -0.057444874 0.047888827 -0.06544949 0.019137999 0.15917733
0.070333876 -0.02434498 -0.0010827931 0.040954426 -0.024276676 0.010187697 -0.06428618 -0.07935769
-0.05055033 -0.047627453 -0.014054251 0.03200487 -0.026907088 -0.14110117 0.016306788 -0.049679123
-0.051788986 0.07741815 0.084850274 -0.0814136 0.021714697 0.076013595 -0.142585 -0.018706433
0.03624779 -0.013930373 -0.05482421 0.03669154 0.032764997 0.041562088 -0.05964711 0.024990167
-0.14054649 0.04444973 0.09703532 0.02289377 -0.023523275 0.057171237 0.030647654 0.026711926
0.030606197 0.08013659 0.047235273 0.04917275 0.008610294 0.06906083 -0.0073576714 -0.033519294
0.012195319 -0.08023942 0.050198816 0.07146556 0.0102610765 0.0055138003 0.0077277846 0.05026482
-0.04900705 -0.038735766 -0.0048806407 -0.006278725 0.025585428 -0.044521965 0.05105913 0.021331416
-0.023793716 0.047377717 0.021394428 0.09052147 0.01806842 -0.008759964 0.024569899 -0.0070717223
-0.027026862 0.028934354 0.05339468 -0.05070462 0.002160272 0.037706513 0.02930349 -0.035103664
0.036824442 -0.055852357 0.08237653 -0.06421294 0.031551775 -0.032577388 -0.03709869 0.021034306
0.017756877 -0.112908386 0.041380674 0.035946183 0.0019432083 0.037993334 -0.007799272 -0.04154152
0.13047269 0.055943787 0.031907678 0.00032807776 0.023798041 0.07126149 0.045219563 -0.040794592
0.0057922313 -0.09159657 0.057187356 0.003615655 -0.032666266 -0.14683688 -0.059413515 0.020335346
00000000: 93ef d1bd 517d 1a3d 49ba 2b3d 8842 7fbd
00000010: 0014 29bc 4971 8bbd d3b4 103d 404a 82bb
00000020: 1df9 09bd 1b07 33bb 2136 58b9 d0d2 053d
00000030: b3f8 333d 7db7 31bd 694a 48bd d54b 7fbd
00000040: 1187 a03d 5487 723d 5406 0e3b 3773 0a3e
00000050: 1e2b 69bd 9d8e bdbc 79bb dc3c c142 b43c
00000060: 59a2 68bc f26c 8fbd 48f0 23bd 3f33 4cbd
00000070: c6c2 20bc 5014 b13d f2c6 bcbd 7c24 f33c
00000080: 3b94 f83c 1468 b73d 0849 083d 1de5 1f3d
00000090: 5903 303d d153 173d 9213 aa3d e31e 88bc
000000a0: 84bb a9bc e10c 26be 16f5 cf3c 8fa1 963c
000000b0: e9fd 3b3d 88bc 513c 28c6 3cbd 71b5 d13d
000000c0: bb48 d03c 1f13 92bc aaf4 a1bd 6f1b 7abb
000000d0: d72c b53d 2b81 913c 8d6f 00bd 4896 e13c
000000e0: cb87 2f3d 2693 7cbc 595c 1f3d 9977 953c
000000f0: fcad 7a3c 230f 59bc 1375 3d3d e89f 2ebd
00000100: 9075 2c3d 09f4 953d d540 31bd 3199 eebb
00000110: 3c22 0d3d d1d4 40bd 2028 3a3c ada0 d33c
00000120: 3ea9 9abc b720 cf3c c54a d13c 2d12 1b3d
00000130: 4e46 763d c8f2 9ebc 8d9f f53d 369b 3cbc
00000140: 0db3 c5bc 2369 a0bd 6ea6 cdba 1f20 073d
00000150: 3a4a 2b3d 8d7d 9dbd faa0 4bbe 3666 243d
00000160: 38d2 bdbd e65c 26bd 458b c13c 012f aebc
00000170: f8fb 69bc 0f9c d1bb 714b d43c 3ac3 86bd
00000180: 7015 4cbd 50ab f43c ff30 76bc 5bf0 bc3c
00000190: 35f8 b73d 53ff ae3c 3578 d63c 6924 06bd
000001a0: 31a8 72bc f2db 573c be35 05bd 4ac6 133d
000001b0: 142c 36be f9fa 23bd 982d 3d3d 51f9 d03d
000001c0: 63ba ab3d ff70 bebc cae0 593d 22c7 30bd
000001d0: db44 69bd d48b 723d 0de5 dcbb 005a 383a
000001e0: 1dae 1abd 348a 7e3d 4990 41bd e8c9 9dbd
000001f0: 933a a93c c6f6 96bd 9063 ef3c d6f4 c5bc
00000200: 6c65 71bc 89bc b3bc c366 0fbd 810a 4ebd
00000210: 6025 a6bd 406c 12bb b8ee 823c bc91 ccbc
00000220: d244 1d3d 9644 febc a017 473d 514b 6bbd
00000230: 1327 443d 620a 86bd 4bc7 9c3c 62ff 223e
00000240: 350b 903d 206f c7bc 82ec 8dba d4bf 273d
00000250: e1df c6bc 4cea 263c 79a8 83bd 4986 a2bd
00000260: dd0d 4fbd 0115 43bd cd43 66bc 8a17 033d
00000270: 416c dcbc d37c 10be d095 853c 567c 4bbd
00000280: b020 54bd 688d 9e3d fbc5 ad3d 2cbc a6bd
00000290: 05e3 b13c 04ad 9b3d cd01 12be 3c3e 99bc
000002a0: 9078 143d 383c 64bc 5a8f 60bd de49 163d
000002b0: 9734 063d 023d 2a3d 8750 74bd 2eb8 cc3c
000002c0: 6beb 0fbe ec10 363d 74ba c63d b78b bb3c
000002d0: e2b3 c0bc 632c 6a3d ca10 fb3c f8d2 da3c
000002e0: d9b9 fa3c a71e a43d c679 413d 5e69 493d
000002f0: 3112 0d3c c46f 8d3d 9f18 f1bb 874b 09bd
00000300: e0ce 473c 9154 a4bd 469d 4d3d 895c 923d
00000310: 131e 283c 1cad b43b 5b39 fd3b 7ce2 4d3d
00000320: 9ebb 48bd 65a9 1ebd c8ed 9fbb c3bd cdbb
00000330: 8898 d13c aa5c 36bd 6123 513d 39bf ae3c
00000340: 0aeb c2bc 230f 423d 5e43 af3c 5263 b93d
00000350: 3904 943c f485 0fbc d046 c93c e8b9 e7bb
00000360: 7067 ddbc bd07 ed3c 61b4 5a3d a6af 4fbd
00000370: 5a93 0d3b 2572 1a3d df0d f03c dcc8 0fbd
00000380: 3ad5 163d 71c5 64bd 07b5 a83d 1382 83bd
00000390: 6f3c 013d de6f 05bd ccf4 17bd 2350 ac3c
000003a0: df76 913c 833c e7bd c87e 293d 4e3c 133d
000003b0: 40b3 fe3a e69e 1b3d 0991 ffbb 7127 2abd
000003c0: a29a 053e 5025 653d a0b1 023d da01 ac39
000003d0: 1cf4 c23c 8bf1 913d 2638 393d 3b18 27bd
000003e0: c2cc bd3b fc96 bbbd 4a3d 6a3d a0f4 6c3b
000003f0: 10cd 05bd 685c 16be 965b 73bd 5096 a63c

net.2.bias f4 [256]
0.07994811 0.026056442 0.01544187 -0.05024508 0.10705074 -0.013486912 -0.06877018 -0.0030145813
0.017237388 0.0010716097 0.024503667 0.003215847 0.0024980274 -0.020273792 0.02834827 -0.07234637
-0.041101888 0.048364073 -0.07345748 -0.067175075 -0.00820392 0.023549654 -0.009936739 0.0067924103
-0.05426874 -0.05034272 -0.023305304 -0.03195638 0.012279245 0.009321817 0.023457516 0.009062533
-0.0030254896 -0.029644169 0.020098917 0.028055208 -0.0623101 -0.03756616 0.034667715 0.039255828
0.0029520886 0.035473403 -0.07995831 -0.07127504 0.030308997 0.0097019365 0.044045772 0.029847668
-0.0078016804 0.116896935 -0.03811956 0.008411323 -0.08102073 -0.057345033 0.057552233 -0.020273352
-0.04794502 -0.05305224 0.0045584133 -0.06318506 -0.03247717 -0.057108913 0.035178397 0.0135790855
0.06400964 0.06794741 0.028425371 0.042705897 -0.019437486 -0.06853986 -0.04467357 -0.06601259
6.6409384e-06 -0.01608827 -0.05039379 -0.05850593 -0.041284334 -0.03610671 -0.056942 -0.014111974
0.014549163 -0.028913755 -0.008076367 -0.050481986 -0.05766231 -0.04924465 -0.063043326 0.039975367
-0.07255633 0.02912627 0.012437367 -0.027128931 0.026532928 0.038437497 0.010916822 0.035473194
0.09270442 0.011829774 0.014717145 0.036340762 -0.054411374 0.0618321 0.028672382 -0.05303325
-0.050463185 0.021989783 0.031481873 -0.010577656 -0.039584022 0.02267391 -0.06449731 0.017593833
0.0371095 -0.05897789 -0.030580573 -0.063935325 0.045324296 0.03331676 0.014569065 0.031061418
0.009893233 0.014327403 -0.005866425 0.0054936726 -0.01563924 0.0017544429 -0.051741466 0.03433733
-0.009643208 -0.061715182 -0.069897 -0.06370511 0.03166928 -0.050378498 -0.03427239 0.032512873
-0.031665772 0.031832177 0.0032068975 -0.049069382 -0.01617623 0.003856545 0.03132098 0.03458696
0.048182625 -0.055609286 0.040820837 0.009427353 -0.039546903 -0.03478316 0.015944924 -0.008658502
0.054344352 0.025137119 0.039185222 -0.019530239 0.00858259 0.010146094 -0.08602633 0.017124033
0.0911959 0.023998141 -0.014617428 -0.05280078 0.043639936 -0.054166216 -0.07362818 -0.052275274
-0.054917756 0.017018702 0.024761397 -0.06884508 -0.044359803 0.03685372 0.03504806 -0.02466206
0.019834315 -0.030370848 -0.062271144 -0.07288492 -0.064742066 0.044278815 -0.07640428 0.016739246
0.04014947 0.0246041 -0.012597536 0.030526003 -0.013882783 -0.04856911 -0.03821134 -0.061484728
0.053577513 0.046594553 -0.05444899 0.03904068 -0.042855464 -0.022689478 -0.021247534 -0.046858367
-0.036543813 -0.008088385 -0.013990846 -0.06882517 0.09699064 -0.028234769 -0.06560825 -0.014455671
-0.0136931 0.0445997 -0.061221913 -0.057184406 -0.06984842 0.020130616 -0.008449488 0.032324407
0.03882086 -0.07981963 -0.066753745 0.0031329284 -0.029258553 0.030103536 -0.0039667888 0.0430095
-0.03926367 0.010391128 -0.006664479 -0.048385844 -0.0029993623 0.034008954 -0.006797043 0.069394626
-0.006237083 0.028218305 0.039366674 -0.066879526 0.03869282 -0.037409652 -0.0047064074 -0.02544797
0.050993 0.034851078 0.07116103 -0.04284623 -0.05262935 -0.057020925 0.071169406 0.06418953
-0.0089733135 0.013141079 -0.008671153 -0.06978989 0.006627959 -0.0005670153 -0.04136219 -0.013107578
00000000: d6bb a33d 5274 d53c e6ff 7c3c c9cd 4dbd
00000010: 6b3d db3d 35f8 5cbc 61d7 8cbd 4890 45bb
00000020: 6c35 8d3c 4175 8c3a eabb c83c f6c0 523b
00000030: f2b5 233b 3915 a6bc a23a e83c 552a 94bd
00000040: 745a 28bd 6819 463d e070 96bd 1693 89bd
00000050: bc69 06bc 34eb c03c b4cd 22bc de92 de3b
00000060: e648 5ebd 2b34 4ebd c4ea bebc b1e4 02bd
00000070: e32e 493c 89ba 183c fa29 c03c 057b 143c
00000080: 4b47 46bb 54d8 f2bc 7ca6 a43c 09d4 e53c
00000090: e038 7fbd f9de 19bd bcff 0d3d b8ca 203d
000000a0: d477 413b 8f4c 113d 2fc1 a3bd a6f8 91bd
000000b0: 934a f83c dff4 1e3c 5769 343d 1983 f43c
000000c0: 3da5 ffbb a967 ef3d 4123 1cbd a5cf 093c
000000d0: 32ee a5bd a0e2 6abd e4bb 6b3d 4d14 a6bc
000000e0: ff61 44bd 4e4d 59bd be5e 953b 2b67 81bd
000000f0: c806 05bd 09eb 69bd 3917 103d d07a 5e3c
00000100: 7c17 833d 0328 8b3d 53dc e83c 61ec 2e3d
00000110: 5d3b 9fbc a05e 8cbd a2fb 36bd 9c31 87bd
00000120: 3ad5 de36 8ccb 83bc b869 4ebd eaa3 6fbd
00000130: c319 29bd a1e4 13bd 043c 69bd e935 67bc
00000140: 9d5f 6e3c 8adc ecbc bd52 04bc 33c6 4ebd
00000150: 502f 6cbd c2b4 49bd dc1c 81bd 36bd 233d
00000160: 6a98 94bd 379a ee3c 19c6 4b3c 7e3d debc
00000170: 955b d93c a370 1d3d 78dc 323c 574c 113d
00000180: d1db bd3d abd1 413c 2e20 713c 0dda 143d
00000190: 76de 5ebd a843 7d3d 58e2 ea3c 6539 59bd
000001a0: 7cb2 4ebd eb23 b43c 23f3 003d e84d 2dbc
000001b0: db22 22bd a3be b93c 2a17 84bd f120 903c
000001c0: 2200 183d cd92 71bd 1c84 fabc 86f0 82bd
000001d0: f8a5 393d 2877 083d 16b3 6e3c 8474 fe3c
000001e0: 3a17 223c 7cbd 6a3c 243b c0bb 4404 b43b
000001f0: dd1d 80bc 56f5 e53a dcee 53bd 4da5 0c3d
00000200: 8cfe 1dbc 0fc9 7cbd 2926 8fbd d377 82bd
00000210: a6b7 013d af59 4ebd 3561 0cbd 382c 053d
00000220: f8b3 01bd 7562 023d d02a 523b fafc 48bd
00000230: 0384 84bc 17be 7c3b 6e4a 003d 0eab 0d3d
00000240: 255b 453d 90c6 63bd c033 273d 2f75 1a3c
00000250: effb 21bd c978 0ebd ee9e 823c 64dc 0dbc
00000260: 2f98 5e3d 5cec cd3c af80 203d e1fd 9fbc
00000270: fe9d 0c3c cd3b 263c 932e b0bd b347 8c3c
00000280: ebc4 ba3d c097 c43c f07d 6fbc a145 58bd
00000290: cabf 323d 65dd 5dbd 5fca 96bd 991e 56bd
000002a0: 71f1 60bd ce6a 8b3c 6ad8 ca3c a6fe 8cbd
000002b0: a0b2 35bd edf3 163d 8e8e 0f3d 1708 cabc
000002c0: 937b a23c 49cc f8bc 0710 7fbd b044 95bd
000002d0: 7d97 84bd b45d 353d d979 9cbd be20 893c
000002e0: c573 243d 8a8e c93c e565 4ebc ab11 fa3c
000002f0: 9d74 63bc 67f0 46bd 7e83 1cbd 69d7 7bbd
00000300: 1874 5b3d eed9 3e3d e705 5fbd 1fe9 1f3d
00000310: 3689 2fbd 49df b9bc 4f0f aebc 8fee 3fbd
00000320: f7ae 15bd 2585 04bc dd39 65bc 36f4 8cbd
00000330: 07a3 c63d 9a4c e7bc 9e5d 86bd 7bd7 6cbc
00000340: 0659 60bc 2dae 363d d4c3 7abd 323a 6abd
00000350: b00c 8fbd f6e8 a43c b96f 0abc 9966 043d
00000360: 9f02 1f3d 7978 a3bd 30b6 88bd d151 4d3b
00000370: a2af efbc b19b f63c d6fb 81bb bb2a 303d
00000380: f1d2 20bd 8d3f 2a3c b461 dabb 3c30 46bd
00000390: f390 44bb f94c 0b3d bbb9 debb c51e 8e3d
000003a0: 7260 ccbb 132a e73c f33e 213d 22f8 88bd
000003b0: 5d7c 1e3d dd3a 19bd 3538 9abb 4378 d0bc
000003c0: 09de 503d 01c0 0e3d e0bc 913d 877f 2fbd
000003d0: e091 57bd c68e 69bd 44c1 913d cd75 833d
000003e0: ce04 13bc ae4d 573c 7411 0ebc 00ee 8ebd
000003f0: 5a2f d93b c1a3 14ba 666b 29bd 2bc1 56bc

net.4.weight f4 [2, 256]
0.013799704 0.009905999 -0.001969191 -0.0032481381 -0.027155882 -0.033860832 0.015609649 0.004897555
-0.09184996 0.012403075 -0.009634163 0.024109134 0.008018346 -0.001984942 0.00069758773 0.05345255
0.020142743 -0.0013879578 0.0021496862 -0.0075347493 0.00029659376 -0.006153832 0.00024239518 -0.0069249556
-0.018981408 0.0028570415 -0.0026951667 -0.018398436 -0.0039399066 0.0020541856 -5.1259587e-05 -0.007109376
-0.019751392 -0.06427515 0.0058091087 -0.029231949 -0.06743345 0.039307997 0.003915916 0.00054443325
-0.011653073 0.0053480305 0.0039868383 0.0023380076 0.012577275 0.08072598 -0.0078004384 -0.016700141
-0.0020993808 -0.044278342 0.046716556 -0.0028594038 -0.0040104785 0.0007539479 -0.009288362 -0.0056953053
-0.004954498 0.028639099 -0.0040395665 -0.008528552 -0.031129105 -0.003585176 0.003494463 0.0020236692
0.04784557 -0.0002511437 -0.0004099988 0.035605952 -0.001124746 -0.00037043757 0.016748788 -0.00031718158
0.00228556 -0.006999582 -0.021256598 -0.004803909 -0.0019911628 -0.002242307 0.002766307 0.0016494908
0.019273171 0.0029319532 0.0032993883 0.0037889816 -0.01221832 0.039943967 0.0010402987 0.001871808
-0.00500966 -0.0023363836 0.050196815 -0.008046895 -0.03789499 -0.014783632 0.001973717 0.0074785356
0.018043041 -0.02164881 0.003977658 -0.015963564 0.0049325214 0.052211676 -0.00016547603 -0.0029100762
-0.00020147096 -0.0029911336 -0.010680621 -0.008942618 -0.01910123 -0.007221859 -0.037809078 -0.0008739064
-0.0038591805 -0.0005384341 0.0020928646 0.00053838844 0.03431233 -0.0026802858 0.055681925 -0.00038694261
0.027307656 0.0026031635 0.00013298194 -0.014372104 -0.05693558 -0.04358655 0.0027791932 0.05995703
0.04049357 -0.024583343 -0.020362414 -0.0022682382 -0.0075964755 -0.0059091747 0.0026838041 0.0020880636
0.06015006 -0.0018157795 0.006279774 -0.015004245 0.009472666 0.00059941655 -0.044496976 0.0017206393
0.08020745 -0.0006708584 -0.0092057595 0.0067323907 0.00020598607 -0.0005042055 -0.0034837788 0.0029170355
-0.024818972 0.0036518502 -0.024757436 -0.007804634 1.2917564e-05 0.017484907 0.0020039368 0.005457374
-0.0015130186 -0.00062117324 -0.0046042907 0.002072336 0.0021957487 0.0007416254 0.0036678 -0.0005221986
-0.0027047156 -0.006896875 -0.0015090567 -0.0033627276 0.0036108862 2.7513834e-05 -0.027134 0.0012158231
0.013806001 0.023745649 0.036164816 -0.0027320292 -0.0041020825 0.007433404 -0.0024082193 -0.00014359278
-0.044097763 -0.0288232 -0.02984651 -0.00025489953 -0.06368016 0.0031295805 0.0022128928 0.011654764
-0.012944905 -0.008238309 -0.0028767907 -0.009047444 -0.0018709465 -0.018374404 0.0023868114 0.0011505471
-0.004316105 -0.0057046046 0.027298523 -0.00033330527 -0.0112999985 -0.0010729623 0.0024027782 0.060279053
0.0014004706 -0.00058418605 0.010207371 0.03528575 0.004110525 0.011457238 0.06334475 0.004894397
0.0015740488 0.012198471 0.011531604 -0.002360525 0.00742257 0.021447182 -0.034070414 0.010065196
-0.0068310243 0.08688916 -0.005093149 0.0012037882 -0.034691684 0.0088609075 0.0070837582 0.07156702
-0.009284671 0.05341687 0.010500736 0.02029881 0.0020171436 0.0011715081 0.0036688796 0.0031758077
0.05665619 -0.031746063 -0.041096676 0.0034806165 0.042339973 -0.009526027 0.1234305 0.026072642
0.0036959683 -0.022220936 0.0019566691 0.0017017083 -0.0046771467 -0.0038532265 0.02387375 0.0011410929
00000000: 2718 623c c54c 223c 8b0d 01bb b7de 54bb
00000010: 0376 debc a8b1 0abd 9dbf 7f3c ab7b a03b
00000020: d51b bcbd 4436 4b3c 9cd8 1dbc 8580 c53c
00000030: 615f 033c cd15 02bb 52de 363a 10f1 5a3d
00000040: 6502 a53c 23ec b5ba c0e1 0c3b 0fe6 f6bb
00000050: 2480 9b39 16a6 c9bb 762b 7e39 bdea e2bb
00000060: e67e 9bbc 343d 3b3b 65a1 30bb 51b8 96bc
00000070: 551a 81bb 849f 063b 90ff 56b8 c5f5 e8bb
00000080: accd a1bc b1a2 83bd 565a be3b d777 efbc
00000090: 8c1a 8abd 6c01 213d 1651 803b 4cb8 0e3a
000000a0: 88ec 3ebc 883e af3b 06a4 823b 4239 193b
000000b0: ea10 4e3c aa53 a53d d29a ffbb bcce 88bc
000000c0: c495 09bb 355d 35bd dc59 3f3d d664 3bbb
000000d0: 556a 83bb 96a4 453a 372e 18bc af9f babb
000000e0: 5759 a2bb 8b9c ea3c 575e 84bb 57bb 0bbc
000000f0: 7702 ffbc 46f5 6abb 5c03 653b 899f 043b
00000100: b7f9 433d f0ab 83b9 1bf5 d6b9 8cd7 113d
00000110: 376c 93ba 4a37 c2b9 c134 893c 644b a6b9
00000120: 55c9 153b c05c e5bb 5122 aebc 1c6a 9dbb
00000130: 2b7e 02bb abf3 12bb ee4a 353b ba33 d83a
00000140: c5e2 9d3c 0326 403b 8d3a 583b 9050 783b
00000150: 592f 48bc 499c 233d a25a 883a 7457 f53a
00000160: 1328 a4bb 031e 19bb 2d9b 4d3d 20d7 03bc
00000170: c737 1bbd 0c37 72bc 7a59 013b 810e f53b
00000180: 00cf 933c d858 b1bc 0457 823b 05c6 82bc
00000190: fda0 a13b e9db 553d a283 2db9 fab6 3ebb
000001a0: f341 53b9 e506 44bb c5fd 2ebc 0f84 12bc
000001b0: 2f7a 9cbc 58a5 ecbb b1dd 1abd de16 65ba
000001c0: 4eea 7cbb b325 0dba 7128 093b a322 0d3a
000001d0: 168b 0c3d bca7 2fbb bb12 643d 8fde cab9
000001e0: 4eb4 df3c d699 2a3b 1171 0b39 f978 6bbc
000001f0: 4835 69bd cf87 32bd 2023 363b 8195 753d
00000200: 96dc 253d 0263 c9bc 14cf a6bc b9a6 14bb
00000210: dbeb f8bb c0a1 c1bb c3e2 2f3b e5d7 083b
00000220: e95f 763d 73ff edba 90c6 cd3b 5dd4 75bc
00000230: 3e33 1b3c 2a22 1d3a 7642 36bd 1387 e13a
00000240: ce43 a43d 8cdc 2fba c1d3 16bc 639b dc3b
00000250: f7fd 5739 a92c 04ba 1c50 64bb bc2b 3f3b
00000260: 2851 cbbc e153 6f3b 1bd0 cabc 04be ffbb
00000270: 84b8 5837 823c 8f3c 7b54 033b c5d3 b23b
00000280: 7b50 c6ba 3bd6 22ba 97df 96bb 07d0 073b
00000290: 8de6 0f3b a369 423a 795f 703b 28e4 08ba
000002a0: 9941 31bb 2eff e1bb 8acb c5ba 3561 5cbb
000002b0: 9ea4 6c3b 82cd e637 1f48 debc 415c 9f3a
000002c0: 9132 623c 3c86 c23c 8f21 143d d80b 33bb
000002d0: c36a 86bb ea93 f33b 37d3 1dbb 6591 16b9
000002e0: db9f 34bd a21e ecbc ab80 f4bc 09a4 85b9
000002f0: be6a 82bd a619 4d3b 2e06 113b a0f3 3e3c
00000300: de16 54bc f9f9 06bc 8a88 3cbb bb3b 14bc
00000310: 8c3a f5ba eb85 96bc 0d6c 1c3b f4cd 963a
00000320: 1d6e 8dbb b1ed babb 27a1 df3c 7abf aeb9
00000330: a123 39bc a4a2 8cba ee77 1d3b 2be7 763d
00000340: ff8f b73a 1024 19ba d13c 273c ca87 103d
00000350: 95b1 863b 24b7 3b3c e4ba 813d 2e61 a03b
00000360: 5050 ce3a 19dc 473c 0eef 3c3c 0ab3 1abb
00000370: 0839 f33b 00b2 af3c 6b8d 0bbd 7ee8 243c
00000380: c9d6 dfbb f2f2 b13d 6ee4 a6bb 6ec8 9d3a
00000390: de18 0ebd 572d 113c df1e e83b bb91 923d
000003a0: bc1e 18bc a6cb 5a3d 470b 2c3c b149 a63c
000003b0: 0e32 043b 4a8d 993a 9671 703b 3621 503b
000003c0: 5210 683d 2908 02bd fd54 28bd 0e1b 643b
000003d0: ae6c 2d3d 0e13 1cbc 21c9 fc3d 4b96 d53c
000003e0: 0f38 723b ae08 b6bc 763b 003b db0b df3a
000003f0: c042 99bb 6a86 7cbb e292 c33c b990 953a

net.4.bias f4 [2]
-0.0063918685 0.015492372
00000000: e172 d1bb b8d3 7d3c
