TrainedModel/cri_weights.pkl (torch, 310583 bytes, 5 tensors)

net.0.weight f4 [256, 42]
0	0xbe1863ec	-0.14881867
1	0xbc912ec5	-0.017722497
2	0x3d589f1b	0.05288611
3	0xbd0e355e	-0.034718864
4	0x3e108628	0.14113677
5	0xbe14892d	-0.14505453
6	0xbddc838d	-0.10767279
7	0xbdbfabe3	-0.09358957
8	0x3e1d775a	0.1537756
9	0xbe11c3c8	-0.14234841
10	0x3df099aa	0.11748059
11	0xbd2a9c5c	-0.041653022
12	0x3dc949af	0.09828507
13	0x3dc7c50f	0.09754383
14	0xbd621b0a	-0.055201568
15	0xbdc18036	-0.094482824
16	0xbd86218a	-0.06549366
17	0xbe058352	-0.13038376
18	0x3ca88312	0.020570312
19	0x3cb9a537	0.022661788
20	0xbdfcdda6	-0.123469636
21	0x3ce8ec73	0.02843306
22	0xbd67c539	-0.05658457
23	0x3dee5a31	0.116382964
24	0x3c9f0962	0.019413654
25	0xbc1f3258	-0.009716593
26	0xbdd8e346	-0.10590224
27	0xbc8fc4ca	-0.017549891
28	0xbdfb5a12	-0.12273039
29	0xbdf3dcdf	-0.11907362
30	0x3d67a550	0.05655414
31	0xbd944cc0	-0.072412014
32	0xbe1d3ba0	-0.15354776
33	0xbdb17798	-0.08665389
34	0x3db9f9e7	0.09080868
35	0xbcb3e751	-0.021960886
36	0xbd03845c	-0.03210865
37	0xbd98bcb2	-0.07457866
38	0xbdc091c8	-0.094028056
39	0xbd1928c4	-0.037392393
40	0xbdb3bce7	-0.08776265
41	0xbdd210ad	-0.10257087
42	0x3eaa5c95	0.3327376
43	0x3edd5775	0.43230787
44	0xbe29a328	-0.16566145
45	0xbd3df018	-0.04637155
46	0x3b1cb997	0.002391433
47	0xbe67f617	-0.2265247
48	0xbd1004f9	-0.035160992
49	0xbdb1f17a	-0.08688636
50	0x3ee59d4d	0.44846573
51	0x3d339b4d	0.04384928
52	0xbe8b4bba	-0.27206212
53	0x3e06714d	0.13129158
54	0xbd1c3ce8	-0.038144022
55	0x3da1ab29	0.07893974
56	0xbcdda40c	-0.027055763
57	0xbe1c3161	-0.15253212
58	0x3cdb3468	0.026758388
59	0xbd13ab35	-0.036051948
60	0xbe370f68	-0.17876971
61	0xbd14db68	-0.036342055
62	0x3c855390	0.016275197
63	0xbd57f3d9	-0.052722786
64	0x3e51b60e	0.20479605
65	0xbd08fe2a	-0.033445515
66	0xbe0ac5fd	-0.13552089
67	0xbe580893	-0.21097021
68	0xbddb2dd1	-0.10702098
69	0xbcacfede	-0.021117624
70	0x3c2c0b75	0.010500778
71	0x3cb9c82e	0.02267846
72	0x3cb2e0f1	0.021835776
73	0xbc959d60	-0.018263519
74	0xbd96db71	-0.07366074
75	0x3da49ee5	0.08038119
76	0xbd5d04cf	-0.053959664
77	0xbdc3bb85	-0.09557251
78	0xbe20f281	-0.15717508
79	0xbd1808eb	-0.03711788
80	0xbe392177	-0.18079172
81	0xbe6130fd	-0.21991344
82	0x3d4271a7	0.04747167
83	0x3d969e6d	0.07354436
84	0xbe565d66	-0.20934066
85	0xbda6eb3a	-0.08150335
86	0xbe39988f	-0.18124603
87	0xbd215a74	-0.039392903
88	0x3df77c02	0.120841995
89	0xbe8da9ee	-0.2766871
90	0x3e9c02de	0.30470937
91	0xbd94b53a	-0.07261129
92	0x3f006885	0.50159484
93	0xbdd972c7	-0.10617595
94	0xbc8f4782	-0.017490152
95	0xbce9117a	-0.028450716
96	0xbd5b06ae	-0.053473167
97	0xbdd4d1b3	-0.103915595
98	0xbcf771d0	-0.030205637
99	0xbd2eca32	-0.042673297
100	0xbe014980	-0.12625694
101	0xbe2d2c7f	-0.16911505
102	0x3c7e4201	0.015518666
103	0x3d998740	0.074965
104	0x3d5acf13	0.053420138
105	0x3dca149d	0.09867213
106	0x3dca843f	0.09888505
107	0xbde52578	-0.11188787
108	0xbdd92146	-0.106020495
109	0xbe253201	-0.16132356
110	0xbd80b34e	-0.062842
111	0xbbcc1d95	-0.0062291124
112	0x3da86451	0.08222259
113	0x3dec9c7f	0.11553287
114	0xbe289721	-0.16463901
115	0x3cbcaa4d	0.023030424
116	0xbccf1f44	-0.025283463
117	0x3d0a1f0e	0.033721022
118	0x3db14cbe	0.086572155
119	0xbe05d183	-0.13068204
120	0xbe1e40d7	-0.15454422
121	0xbc3959e2	-0.011312934
122	0xbd9358fc	-0.07194707
123	0x3ccba59e	0.024859246
124	0xbdb67d0b	-0.08910569
125	0xbd803085	-0.06259254
126	0x3cead217	0.028664632
127	0x3dab7a32	0.08372916
128	0xbe739c99	-0.23790206
129	0x3ceef6a9	0.029170351
130	0x3db4fc88	0.08837229
131	0xbeb052a2	-0.34438044
132	0x3d0a6b0c	0.033793494
133	0x3cd68ee4	0.026191182
134	0x3e9e50d2	0.30921036
135	0x3e082910	0.13296914
136	0xbe1df66e	-0.15426037
137	0x3e0b3ee6	0.13598213
138	0x3cdc462b	0.026888927
139	0x3d85e132	0.06537093
140	0x3e18f52e	0.14937279
141	0xbbf0258d	-0.007328695
142	0x3e1285c8	0.14308846
143	0x3e1c70df	0.15277432
144	0x3c23227e	0.009956954
145	0x3e1bac2e	0.152024
146	0x3e199ab6	0.15000424
147	0x3d8d7a13	0.069080494
148	0xbd36787e	-0.044548504
149	0xbc315bc0	-0.010825098
150	0x3de4a102	0.11163522
151	0x3e1562a4	0.1458841
152	0xbcc3e59d	-0.0239132
153	0x3d17e019	0.03707895
154	0xbdb9fc2d	-0.09081302
155	0x3dba3d3b	0.0909371
156	0x3dd4be3a	0.10387845
157	0xbe061e6c	-0.13097543
158	0x3cc9a493	0.024614608
159	0xbdcdea77	-0.10054486
160	0x3dd16bd4	0.10225645
161	0x3db0f61e	0.08640693
162	0xbd542986	-0.051797412
163	0x3dbb798c	0.091540426
164	0xbe16d849	-0.14730944
165	0x3d2a618a	0.041596927
166	0xbd014860	-0.031563163
167	0x3cb45a99	0.022015857
168	0xbf091efa	-0.5356289
169	0x3e98cb71	0.29842713
170	0xbd1f5164	-0.03889598
171	0xbdcaf0af	-0.09909188
172	0x3dba3530	0.09092176
173	0xbbb6f10c	-0.0055829342
174	0xbd376bc3	-0.044780504
175	0x3ddda5a7	0.10822611
176	0xbce5b1c4	-0.028038867
177	0x3b9c5b86	0.0047716526
178	0x3de3d303	0.11124232
179	0x3d950a09	0.07277305
180	0x3e41a7f6	0.18911728
181	0x3e5dabc9	0.21647562
182	0x3dc85455	0.0978171
183	0x3c489806	0.012243276
184	0x3d888779	0.06666464
185	0xbbc14838	-0.0058985017
186	0x3e1bcfcd	0.15215988
187	0x3e33eac7	0.17570029
188	0xbd9c6865	-0.07637099
189	0x3e45a198	0.19299924
190	0x3cad83c2	0.021180991
191	0xbd5fa788	-0.05460313
192	0x3d433474	0.047657445
193	0x3d8fa05c	0.07013008
194	0x3df57144	0.11984494
195	0xbcf42ac1	-0.029805543
196	0x3d0e35c6	0.03471925
197	0x3d7628e5	0.060097594
198	0xbd5855bb	-0.052816134
199	0x3d273573	0.040822458
200	0xbd6ef449	-0.058338437
201	0x3e5b2bc0	0.21403408
202	0x3da26c5f	0.079308264
203	0x3df89016	0.12136857
204	0x3e0dc512	0.13844708
205	0x3c8bf2ce	0.017083552
206	0xbcea76ae	-0.028621044
207	0x3b5d3c9a	0.0033758045
208	0x3c8fee4c	0.017569683
209	0x3e524deb	0.20537536
210	0xbdb44f4e	-0.08804189
211	0xbe495492	-0.19661167
212	0xbc23f943	-0.010008159
213	0x3d82023d	0.06348083
214	0xbe096ee1	-0.13421203
215	0xbe0414ab	-0.12898509
216	0xbe755cc6	-0.23961172
217	0x3e2bf485	0.16792496
218	0x3e757839	0.23971643
219	0x3e1b7fc7	0.15185462
220	0x3e55c058	0.20874155
221	0xbdda5f46	-0.10662703
222	0xbcfb5506	-0.03068019
223	0x3d54d8d7	0.051964607
224	0x3dda9841	0.106735714
225	0x3dff12a8	0.1245473
226	0x3e352728	0.17690718
227	0x3e1f1888	0.15536702
228	0xbd681ca5	-0.056667943
229	0xbc7e1733	-0.015508461
230	0x3a967ada	0.0011480704
231	0x3e3515b2	0.17684057
232	0x3dcc4379	0.09973807
233	0x3e31841c	0.17335552
234	0x3d79b914	0.06096752
235	0x3de9dae7	0.114187054
236	0x3e3be76f	0.18350004
237	0x3c5520b8	0.013008289
238	0xbcde1e40	-0.027114034
239	0xbd9cbc83	-0.07653143
240	0x3e059abd	0.13047309
241	0x3d138085	0.036011238
242	0x3d2311ea	0.039812006
243	0xbdf512e3	-0.11966493
244	0xbd9c8da7	-0.076442055
245	0x3a8feef3	0.0010981247
246	0xbc3c92e2	-0.011509629
247	0x3d935cc4	0.07195428
248	0xbc2c75a9	-0.010526099
249	0x3e0afbef	0.13572668
250	0x3e14a226	0.1451498
251	0x3d5ab786	0.053397678
252	0x3cc3b4fd	0.023890013
253	0x3d1ce205	0.038301487
254	0xbe0d8257	-0.13819252
255	0xbbcb6691	-0.006207295

net.0.bias f4 [256]
0	0xbb858a39	-0.0040753153
1	0xbde915e0	-0.113811255
2	0x3c86ec06	0.016469967
3	0x3d02bad4	0.031916454
4	0x3e50f91b	0.20407526
5	0x3da54269	0.08069307
6	0x3da6d12d	0.08145366
7	0x3d4b68c4	0.04966046
8	0xbe529ab4	-0.20566827
9	0x3d2cb274	0.042162374
10	0x3d253532	0.040333934
11	0xbde215b2	-0.11039294
12	0x3da6eb40	0.08150339
13	0xbe2af3a6	-0.16694507
14	0x3dcfc38b	0.10144719
15	0xbd17816a	-0.036988653
16	0xbd1b142f	-0.037861045
17	0xbd8c8747	-0.068617396
18	0xbd799664	-0.06093444
19	0xbe30071d	-0.17190214
20	0xbde00464	-0.109383374
21	0xbe1a6cad	-0.15080519
22	0x3deceb43	0.1156831
23	0xbc890912	-0.016727958
24	0x3e1c107b	0.15240662
25	0x3deab50f	0.114603154
26	0x3e113d60	0.14183569
27	0xbe104adc	-0.14091057
28	0x3dd16ea0	0.10226178
29	0xbdab6af2	-0.083700076
30	0xbdb32c44	-0.087486774
31	0x3d6ba89a	0.057533838
32	0x3caf5a6c	0.021405421
33	0xbca71e71	-0.020400258
34	0x3e194ae1	0.1496997
35	0xbd2ff2c8	-0.042956144
36	0xbdbe92b7	-0.093053274
37	0x3e39eb0a	0.18156067
38	0x3db72d7a	0.08944221
39	0x3d25b1fd	0.040452946
40	0x3c9c81f5	0.019104937
41	0xbddfe027	-0.109314255
42	0x3e897692	0.26848274
43	0xbdb6d482	-0.089272514
44	0x3e1fe4c8	0.15614617
45	0x3e1ab485	0.15107925
46	0xbe1cb732	-0.15304258
47	0x3d1edcc1	0.038784746
48	0xbd0e285a	-0.03470645
49	0xbd54b072	-0.051926084
50	0x3d603dc1	0.054746393
51	0xbcbe468b	-0.023226997
52	0xbc47373a	-0.012159163
53	0x3d464466	0.048405074
54	0x3e10a710	0.1412623
55	0xbe05f23f	-0.13080691
56	0x3de6127f	0.112339966
57	0x3e48d6a1	0.19613124
58	0x3dc6c3e4	0.09705332
59	0x3c9b9028	0.018989637
60	0xbd0f0848	-0.034920007
61	0xbe61c0f1	-0.22046258
62	0xbd9e8e33	-0.07741966
63	0xbdfde5c4	-0.1239734
64	0x3d3fbdc9	0.046811853
65	0xbdbe516e	-0.09292875
66	0xbd268d03	-0.040661823
67	0x3b4df2c2	0.0031425213
68	0xbc91cdf3	-0.0177984
69	0x3deba4e9	0.115060635
70	0xbd698b72	-0.05701775
71	0xbd8bccaf	-0.0682615
72	0x3d574152	0.05255253
73	0x3e2576d9	0.16158618
74	0x3e1c4f76	0.15264687
75	0xbd8b67f0	-0.06806934
76	0xbd8bb43c	-0.06821486
77	0x3d26ee81	0.0407548
78	0x3e295918	0.16537893
79	0x3cbe0252	0.023194466
80	0xbd50181d	-0.050804246
81	0xbe02bb14	-0.12766677
82	0xbac82782	-0.0015270563
83	0x3d4ffa89	0.05077604
84	0x3cdd820f	0.027039556
85	0xbd398534	-0.045293048
86	0x3d534528	0.051579624
87	0xbde9ce19	-0.11416263
88	0x3cc59cbe	0.024122592
89	0xbc9b47b7	-0.018955095
90	0xbdbc21ac	-0.0918611
91	0x3d710351	0.058841053
92	0x3e4d99e5	0.20078237
93	0xbd59aede	-0.053145282
94	0x3e0d6f3d	0.13811965
95	0xbdb2dbc2	-0.08733322
96	0x3cdd3ad1	0.027005585
97	0xbba23f48	-0.0049513914
98	0x3b996e52	0.0046823407
99	0xbe09dde3	-0.1346355
100	0x3e06a12b	0.13147418
101	0x3c1f23f5	0.009713163
102	0x3e128dc2	0.14311889
103	0xbe03d0d9	-0.12872638
104	0xbc94f837	-0.018184764
105	0x3e014aa8	0.12626135
106	0x3d5ad3a9	0.05342451
107	0xbde8c21a	-0.11365147
108	0xbdab2f27	-0.08358603
109	0xbd17d055	-0.037063915
110	0x3e63d3f6	0.22248825
111	0xbd038eb2	-0.032118507
112	0xbbf02e54	-0.0073297415
113	0xbdfc979f	-0.12333607
114	0xbd2d13b7	-0.04225513
115	0xbe904add	-0.28182116
116	0xbc40a55b	-0.011758174
117	0xbe36e1db	-0.17859595
118	0x3dd129dd	0.10213063
119	0x3c8d246e	0.017229285
120	0x3cfbc18a	0.030731935
121	0x3e61b1a6	0.22040424
122	0x3da3d192	0.07998957
123	0x3e3f868b	0.18703668
124	0xbdd8985f	-0.105759375
125	0xbcdfa790	-0.02730158
126	0x3dd18331	0.10230101
127	0x3e1b8713	0.15188245
128	0x3e44e009	0.19226088
129	0x3cc4e000	0.024032593
130	0xbd59153e	-0.052998774
131	0xbc1d8992	-0.009615319
132	0xbd730192	-0.05932767
133	0x3e307992	0.17233875
134	0xbdd84e49	-0.10561807
135	0xbe2a584c	-0.16635245
136	0x3e1b479c	0.15164036
137	0xbe130e4b	-0.14360921
138	0x3d0f1576	0.034932576
139	0x3dbe4b58	0.092917144
140	0x3d841877	0.06449979
141	0x3d88539e	0.06656574
142	0xbdb2c94c	-0.087298006
143	0x3d988fff	0.0744934
144	0x3ddd0969	0.107928105
145	0x3e2f0f3a	0.17095652
146	0x3d85ebe7	0.065391354
147	0xbd9bd48e	-0.07608901
148	0xbd85242f	-0.06501042
149	0xbe00bdc8	-0.12572396
150	0x3e58a895	0.21158059
151	0xbc31a81c	-0.010843303
152	0xbdc1a6c2	-0.09455635
153	0x3d9b8b97	0.07594984
154	0x3d4b16d6	0.049582325
155	0x3dd21039	0.102570005
156	0x3c3d1088	0.011539586
157	0x3e754946	0.23953733
158	0xbda5ae46	-0.08089881
159	0xbd4791a7	-0.04872289
160	0xbe6fe520	-0.23427248
161	0x3d37bf9e	0.044860475
162	0x3d8f3c76	0.06993954
163	0x3c64d983	0.013967874
164	0xbd9954c6	-0.074868724
165	0xbe6be58f	-0.23036788
166	0x3cadee8a	0.021231908
167	0xbde053bd	-0.10953472
168	0x3e2d7c73	0.16942005
169	0x3dc5fae7	0.096669964
170	0x3d996f68	0.07491952
171	0xbd21b69b	-0.039480787
172	0x3de11612	0.10990538
173	0xbdddc114	-0.10827842
174	0xbcba5e30	-0.02274999
175	0x3d91f488	0.07126719
176	0x3e12017b	0.14258377
177	0xbddc5561	-0.10758472
178	0xbd751e1e	-0.059843175
179	0xbda1ef8d	-0.07907019
180	0xbd7ff391	-0.062488142
181	0xbe49e305	-0.19715507
182	0xbcc04a4a	-0.023472924
183	0xbcf778a5	-0.030208895
184	0x3d8e8ef8	0.06960863
185	0xbd194ea7	-0.037428524
186	0x3dfa31a8	0.122165024
187	0x3c3cb500	0.011517763
188	0xbd998189	-0.0749541
189	0x3d1ebeca	0.03875617
190	0xbdbbf5aa	-0.09177716
191	0xbde41d4d	-0.11138401
192	0x3da312a9	0.079625435
193	0x3dd8a421	0.1057818
194	0xbe1398c0	-0.14413738
195	0x3e110109	0.14160551
196	0xbdea4114	-0.11438194
197	0x3da309b1	0.07960833
198	0xbcad6671	-0.021167012
199	0x3ce487e6	0.027896833
200	0x3d0ddcff	0.034634586
201	0xbe2e8df9	-0.17046346
202	0xbe8f14fc	-0.27945697
203	0xbd90ed60	-0.07076526
204	0xbd8d55b5	-0.06901113
205	0xbe117151	-0.14203383
206	0xbc49361f	-0.01228097
207	0xbdee9588	-0.116496146
208	0x3e06e5c7	0.1317359
209	0xbe156554	-0.14589435
210	0xbd252dce	-0.040326886
211	0x3e0c5475	0.13704093
212	0xbdb53765	-0.08848456
213	0xbd9f379d	-0.07774279
214	0xbdc2b58b	-0.09507283
215	0x3d4d3f81	0.05010939
216	0xbd887396	-0.06662671
217	0x3db84012	0.089965954
218	0xbc3dc818	-0.011583351
219	0xbd832c1c	-0.064048976
220	0xbde9d7d7	-0.11418121
221	0xbdbab5c0	-0.09116697
222	0x3e39d77f	0.18148611
223	0xbc8543e0	-0.016267717
224	0xbd67cbe9	-0.05659095
225	0x3d2cf6ca	0.042227544
226	0xbd2d8602	-0.042364128
227	0x3e01c9ef	0.12674688
228	0xbb8f81ee	-0.0043795025
229	0x3cb74b8d	0.022374893
230	0xbda4923a	-0.08035703
231	0xbe400c9d	-0.18754812
232	0x3cedbfaa	0.029022057
233	0x3a09f8b1	0.0005263193
234	0xbe1f777e	-0.15572926
235	0xbd19ffd0	-0.037597477
236	0x3d64f5e4	0.055898562
237	0xbcba4633	-0.022738552
238	0x3dfd6a3c	0.12373778
239	0xbb2e35b8	-0.0026582312
240	0xbe262a46	-0.16227064
241	0xbdac167a	-0.084027246
242	0xbc91afbf	-0.017783998
243	0xbc9d5dd2	-0.019209776
244	0x3dffeddb	0.12496539
245	0xbcdac900	-0.026707172
246	0x3e26e8d6	0.16299757
247	0x3e040b4b	0.12894933
248	0x3d954616	0.072887585
249	0xbcad96fa	-0.021190155
250	0xbe7b26b1	-0.24526478
251	0x3e0be948	0.13663208
252	0xbd3788e1	-0.044808272
253	0x3d9cf25b	0.07663413
254	0x3dea0bee	0.11428057
255	0x3e2f792a	0.17136064

net.2.weight f4 [256, 256]
0	0x3d91d0e3	0.0711992
1	0xbf009466	-0.5022644
2	0x3e390409	0.18067946
3	0x3dc663db	0.09687015
4	0xbe9bce5f	-0.30430886
5	0x3ea9ae7c	0.33140934
6	0xbe15a14f	-0.14612316
7	0x3d8d7cec	0.069085926
8	0x3e9a8c3d	0.30185118
9	0xbf55fa98	-0.835855
10	0x3e81bc55	0.25338998
11	0x3f03da12	0.51504624
12	0x3f030537	0.5117983
13	0x3d4badd1	0.04972631
14	0x3f9d73f6	1.2301013
15	0xbdd99fa4	-0.10626152
16	0xbb6b5c3f	-0.0035913137
17	0x3cfb9bcc	0.030713938
18	0x3d0c285f	0.03421819
19	0x3edbfba0	0.42965412
20	0x3e982307	0.29714224
21	0x3d85c1e0	0.06531119
22	0xbd83240f	-0.06403362
23	0x3e3dc81a	0.18533364
24	0xbca2d4c4	-0.019876845
25	0x3e4459d5	0.19174893
26	0x3d09b239	0.033617232
27	0x3f9b7b01	1.2146913
28	0x3e1f1045	0.1553355
29	0x3f58a39f	0.84624666
30	0xba741921	-0.0009311606
31	0xbbd800c9	-0.0065918905
32	0xbe592d3d	-0.21208663
33	0x3e304dce	0.1721718
34	0xbca85df4	-0.020552613
35	0x3f9c697f	1.2219695
36	0x3eb3787f	0.3505287
37	0x3e4db5ef	0.20088933
38	0xbb77915f	-0.0037775857
39	0x3f0adf96	0.54247415
40	0x3d896cfa	0.06710239
41	0x3e4cf5f8	0.20015705
42	0x3e338ba5	0.17533739
43	0xbd630f24	-0.05543436
44	0x3e198985	0.14993866
45	0xbc298e38	-0.010348849
46	0x3f68f987	0.9100575
47	0x3f0d06aa	0.55088294
48	0x3ebbe091	0.36694768
49	0x3f089f35	0.5336793
50	0xbe6b01d0	-0.2294991
51	0x3e0cd563	0.13753276
52	0x3d8f65f9	0.070018716
53	0x3ecbfecb	0.3984283
54	0xbd0409ad	-0.03223579
55	0x3ec94b57	0.39315292
56	0x3e92c001	0.28662112
57	0xbd783d0f	-0.060605105
58	0x3cec1b8f	0.028821735
59	0xbd68db78	-0.056849927
60	0x3ca22c64	0.019796558
61	0xbe0462f4	-0.12928373
62	0x3e56189b	0.20907824
63	0x3de35d10	0.11101735
64	0x3ec1f5c8	0.3788283
65	0x3e9ee77d	0.31035987
66	0x3f8ae566	1.0851257
67	0x3d276103	0.040864002
68	0x3f764d50	0.9621172
69	0xbdd4f6fc	-0.10398671
70	0x3d4c7395	0.049914915
71	0x3e8beb6c	0.2732805
72	0x3e886691	0.26640752
73	0x3e998228	0.29982114
74	0x3d8055d3	0.0626637
75	0x3e8e280c	0.27764928
76	0x3f0a59b4	0.54043126
77	0x3e1ab96f	0.151098
78	0xbcccfc75	-0.025022725
79	0xbe8e0a19	-0.2774208
80	0x3dea6cd1	0.11446536
81	0x3e134805	0.14382942
82	0x3d18b641	0.037283186
83	0xbcf3091b	-0.029667428
84	0xbab35d09	-0.0013684343
85	0xbce76e0c	-0.028250717
86	0x3e2409af	0.16019319
87	0x3e276136	0.16345677
88	0xbc1b59cf	-0.009481861
89	0x3e07cd9d	0.13262029
90	0x3d8f10aa	0.069856
91	0x3f05fdb8	0.5234027
92	0x3e5ad12e	0.21368858
93	0xbd30de82	-0.04318095
94	0x3e8f1a99	0.2794998
95	0x3da3106b	0.07962116
96	0xbcf9f53f	-0.03051245
97	0x3d99653f	0.07490014
98	0x3d661f50	0.056182206
99	0x3ee14df9	0.440048
100	0xbbb717b0	-0.0055875406
101	0x3e276e66	0.16350707
102	0xbbf1f85e	-0.007384344
103	0x3e34f226	0.17670497
104	0xbce68924	-0.028141566
105	0x3f00562e	0.501315
106	0xbca89c52	-0.020582352
107	0x3e6124cc	0.21986693
108	0x3e615f58	0.22009027
109	0x3d3967bd	0.04526495
110	0x3c9b17ae	0.01893219
111	0xbe537478	-0.20649898
112	0x3ce113b1	0.02747521
113	0x3d88c4bf	0.06678151
114	0x3d717718	0.058951467
115	0x3e301097	0.17193829
116	0xbc590460	-0.013245672
117	0x3f400f0a	0.7502295
118	0x3d599bf8	0.05312726
119	0x3e94bba4	0.29049408
120	0x3e51a062	0.20471337
121	0xbd742026	-0.05960097
122	0x3b833c90	0.0040050223
123	0xbd8e891a	-0.06959744
124	0xbec6465f	-0.38725564
125	0xbd52bd14	-0.05144985
126	0x3c6dbfb6	0.0145110395
127	0x3c93e3d4	0.018052973
128	0xbe899e3e	-0.26878542
129	0xbc2a425e	-0.0103918
130	0x3bf25a60	0.0073960274
131	0x3e8535af	0.2601752
132	0x3d327623	0.043569695
133	0xbd0dfa8b	-0.034662765
134	0x3ebf90de	0.37415212
135	0x3e389ad7	0.18027817
136	0x3d194f8b	0.037429374
137	0x3d3636c0	0.044485807
138	0x3f0a24a9	0.5396219
139	0xbd2d1fd2	-0.042266674
140	0x3d92243a	0.07135816
141	0x3e2519b7	0.1612309
142	0x3d1ae58c	0.03781657
143	0x3ec5ac53	0.38608035
144	0xbde79753	-0.1130816
145	0xbe345a09	-0.1761247
146	0x3e1eb3a6	0.15498218
147	0x3f68dce7	0.9096207
148	0xbe6b8ec4	-0.2300368
149	0xbd290024	-0.0412599
150	0x3c00117b	0.007816668
151	0xbd41122b	-0.047136467
152	0x3d1f5e64	0.038908377
153	0x3d3d898d	0.046273757
154	0x3b9baf72	0.0047511393
155	0x3e132311	0.14368846
156	0xbcc3bfe7	-0.023895217
157	0xbee1a738	-0.4407289
158	0x3e4f91ae	0.20270416
159	0x3bb060dc	0.0053826403
160	0x3f6eb9a4	0.93252015
161	0xbebf8776	-0.37408036
162	0xbbdca340	-0.006733328
163	0x3eaee12d	0.3415617
164	0xbb9e4b2a	-0.0048307376
165	0x3ed2b5b4	0.41154253
166	0xbe8bbe3e	-0.2729358
167	0x3faaebd6	1.3353221
168	0x3e451f18	0.19250143
169	0x3e740a1a	0.23831978
170	0x3d930a20	0.071796656
171	0x3ead8c92	0.3389631
172	0xbbe347d0	-0.006936051
173	0xbe36db41	-0.17857076
174	0xbcea4c08	-0.028600708
175	0x3eca96d1	0.3956819
176	0xbd1baab4	-0.038004592
177	0x3cb64f6e	0.022254672
178	0xbe0a4e25	-0.13506372
179	0x3ce5384d	0.027980948
180	0x3dc7430b	0.09729584
181	0x3e8440cd	0.2583069
182	0xbf00a560	-0.5025234
183	0xbd0993a2	-0.03358806
184	0x3d054994	0.032540873
185	0x3df595e9	0.11991484
186	0x3e602d3d	0.21892257
187	0x3c16f8c8	0.0092145875
188	0x3eb92517	0.3616111
189	0xbaa6980f	-0.0012710112
190	0xbc8347cd	-0.016025448
191	0x3e85dcde	0.2614507
192	0x3e083946	0.13303098
193	0x3d92a999	0.071612544
194	0x3a6cc300	0.0009031743
195	0xbc0201b0	-0.007934973
196	0x3e1eb813	0.15499906
197	0x3ea705ab	0.32621512
198	0xbe1abbb3	-0.15110664
199	0xbe39eb99	-0.1815628
200	0x3e473222	0.19452718
201	0xbe250851	-0.16116454
202	0x3f60bdc1	0.8778954
203	0x3d0a9caf	0.03384083
204	0xbcd339c0	-0.025784373
205	0x3c74ec4c	0.014948916
206	0x3ee6e5aa	0.45097095
207	0xbc9f9404	-0.019479759
208	0xbc4eecea	-0.012629727
209	0x3eda0c90	0.4258771
210	0x3bec25f8	0.0072066747
211	0x3d16d198	0.036820978
212	0x3dc44040	0.09582567
213	0x3baa5cb8	0.005199041
214	0x3ef814d6	0.48453397
215	0x3e78bd3a	0.24290934
216	0xbe139dd7	-0.1441568
217	0xbcca23d0	-0.02467528
218	0x3c80e911	0.015736135
219	0xbeb7627c	-0.35817325
220	0x3cc61c08	0.024183288
221	0xbce2e7fc	-0.02769851
222	0x3cdef78b	0.027217647
223	0xbeeecb39	-0.46639422
224	0xbcfb2b21	-0.030660214
225	0xbcbfd00e	-0.023414638
226	0x3d5160f4	0.051117852
227	0x3dd43f24	0.103636056
228	0x3e6ea86a	0.23306432
229	0x3d787d37	0.06066629
230	0xbc07d600	-0.008290768
231	0x3df8baea	0.12145026
232	0xbb3ce9b5	-0.0028825824
233	0x3f0d2a24	0.55142426
234	0xbc502489	-0.012704023
235	0x3d6abad6	0.057307087
236	0x3cdd640c	0.027025245
237	0xbafba7fd	-0.0019199845
238	0x3f1de637	0.61679405
239	0xbdb7a17a	-0.08966346
240	0x3e29190a	0.16513458
241	0x3ecdb9c4	0.4018079
242	0xbd4dc04c	-0.050232217
243	0x3dcc5d29	0.099787064
244	0x3e9086df	0.28227898
245	0xbc3d2fe0	-0.011547059
246	0xbe6f001c	-0.23339885
247	0x3e528604	0.20558935
248	0xbdc9282a	-0.09822114
249	0xbf1861a1	-0.5952397
250	0x3f9b4eda	1.2133439
251	0x3dee786d	0.11644063
252	0x3e9d2f2c	0.30700052
253	0x3d17b960	0.03704202
254	0xbc4288e6	-0.011873459
255	0xbe21f3b5	-0.15815623

net.2.bias f4 [256]
0	0xbbe5bd1a	-0.007011068
1	0x3bf8635b	0.0075802035
2	0x3c40320c	0.011730682
3	0xbd26cd6f	-0.04072326
4	0xbc905f60	-0.017623603
5	0xbca69365	-0.020333955
6	0x3ca490a7	0.020088507
7	0xbd6f8345	-0.058474798
8	0xbd4116fc	-0.04714106
9	0xbd2a5349	-0.041583333
10	0x3d50a10e	0.050934844
11	0x3d583c11	0.05279166
12	0x3d4652f6	0.04841896
13	0xbd9929de	-0.07478689
14	0x3d6fea36	0.05857297
15	0xbd1c5aad	-0.038172413
16	0xbd440b8e	-0.047862582
17	0x3be56780	0.0070008636
18	0xbd340cb2	-0.04395742
19	0xbc48a54f	-0.012246444
20	0xbbd82cf0	-0.006597154
21	0x3dc7abbf	0.09749555
22	0xbd339bee	-0.043849878
23	0x3d95b12d	0.07309184
24	0x3ced1f6a	0.028945643
25	0x3cc3cf90	0.023902684
26	0xbd6bb563	-0.05754603
27	0x3baeb137	0.0053311842
28	0x3e062ab2	0.13102224
29	0xbd14de22	-0.036344655
30	0x3c9987c3	0.018741494
31	0xbd5981da	-0.05310235
32	0x3cb85e7d	0.022505993
33	0x3d13ff67	0.036132243
34	0x3d41d860	0.047325492
35	0xbc6899f2	-0.01419686
36	0x3dae9b88	0.08525759
37	0xbcc01e0c	-0.023451827
38	0xbd15f097	-0.036606397
39	0x3c60ca11	0.013720051
40	0x3d4a4c4c	0.04938917
41	0x3dc2e6e9	0.09516699
42	0xbd5621bd	-0.05227827
43	0x3dc63689	0.096783705
44	0xbc10aa12	-0.00882961
45	0x3d3fe35f	0.046847697
46	0x3cfef814	0.031124152
47	0x3d3ecb75	0.04658075
48	0x3d6782dd	0.056521285
49	0xbd543bde	-0.051814906
50	0x3c5b0990	0.013368979
51	0xbd319118	-0.043351263
52	0xbd56c0bd	-0.052429903
53	0x3d9c71b3	0.07638874
54	0x3c1bb695	0.00950398
55	0x3d3202fd	0.04345988
56	0xbcac597d	-0.021038765
57	0x3cb83025	0.022483895
58	0x3cb0c794	0.021579541
59	0x3dba5ac8	0.090993464
60	0xbd4c64a1	-0.049900655
61	0x3e096f7a	0.13421431
62	0x3d21f3f4	0.039539292
63	0x3d05705e	0.032577865
64	0x3cdcb64d	0.026942397
65	0x3da8614b	0.08221682
66	0x3db0c1c0	0.08630705
67	0xbc8c7699	-0.017146396
68	0xbca55562	-0.020182315
69	0x3d396c63	0.04526938
70	0x3cd6a76a	0.026202876
71	0xbd4431fc	-0.04789923
72	0x3d6a6188	0.05722192
73	0x3d830c76	0.06398861
74	0x3bd4af34	0.0064906124
75	0x3ddefe84	0.10888389
76	0x3d37bcbe	0.044857733
77	0x3d51e972	0.05124802
78	0xbcae918c	-0.021309637
79	0xbd01dce1	-0.031704787
80	0xbd12ad9b	-0.035810094
81	0x3d958df4	0.07302466
82	0x3cd95fae	0.026534881
83	0x3c8fda0c	0.017560028
84	0xbd7d3968	-0.061822325
85	0x3d8c8799	0.06861801
86	0xbbe1eed9	-0.006894928
87	0xbd74f1a8	-0.059800774
88	0x3ced5913	0.028973138
89	0x3d4272b7	0.04747268
90	0xbccda50a	-0.02510311
91	0x3be46234	0.0069697145
92	0x3dbe7fc3	0.09301712
93	0x3dd94982	0.10609724
94	0x3d67ba0a	0.056573905
95	0xbd6a19bf	-0.05715346
96	0xbcbd7a64	-0.02312965
97	0x3c30f837	0.0108013665
98	0xbc0c348a	-0.008557448
99	0xbbf919ff	-0.007601976
100	0x3a999403	0.0011717085
101	0xbd4afae8	-0.04955569
102	0xbb2325cd	-0.0024894357
103	0x3c49bb16	0.012312671
104	0x3cae2752	0.021258984
105	0x3d47c725	0.048773903
106	0xbbcad34e	-0.0061897403
107	0xbc8c07b7	-0.017093522
108	0xbd4aae68	-0.049482733
109	0x3cc8d63f	0.024516223
110	0xbe10a026	-0.14123592
111	0xbde03582	-0.10947706
112	0xbd6d3d58	-0.05791983
113	0xbd659051	-0.056045834
114	0x3d767bcb	0.060176652
115	0x3c6b51e9	0.014362791
116	0xbd5f4141	-0.05450559
117	0x3d18a1de	0.037263744
118	0xbbd832df	-0.006597861
119	0x3df5cb43	0.1200166
120	0x3c6c4891	0.014421598
121	0x3c5c8361	0.013459058
122	0xbc572ca6	-0.013133204
123	0xbc0c11c1	-0.008549155
124	0xbd347fe8	-0.044067293
125	0xbc9b63c5	-0.018968472
126	0xbd7c0050	-0.061523736
127	0x3c5e4e6b	0.013568501
128	0xbcc32fa4	-0.023826428
129	0x3d0f32a3	0.0349604
130	0xbce9a4bf	-0.02852094
131	0x3b586c36	0.0033023483
132	0x3ccecfc0	0.025245547
133	0x3e2e0357	0.16993462
134	0x3dade41b	0.08490773
135	0xbd2d5cc2	-0.04232479
136	0x3cb56ffa	0.022148121
137	0x3d8f7017	0.07003801
138	0xbbe7346f	-0.007055811
139	0x3d171634	0.03688641
140	0x3abe8b6a	0.0014537398
141	0x3c9fc53f	0.019503234
142	0xbd043915	-0.032281
143	0xbca9fd71	-0.020750733
144	0xbb84466d	-0.0040367157
145	0x3c8a6413	0.016893422
146	0x3c4c8598	0.012483023
147	0x3d228276	0.0396752
148	0xbc985f15	-0.018600026
149	0x3bbed96e	0.0058242595
150	0xbcfc382f	-0.03078851
151	0xbd234671	-0.0398621
152	0x3b99dad2	0.004695275
153	0x3e0a1795	0.13485558
154	0x3d5b1e89	0.053495917
155	0x3d2811f1	0.041032735
156	0x3bb67ab6	0.0055688275
157	0x3d220e26	0.039564274
158	0xb8d31455	-0.00010065051
159	0x3c1a682a	0.009424249
160	0x3ca6d3e0	0.020364702
161	0xbd4ed794	-0.05049856
162	0x3e013c34	0.12620622
163	0x3d8e3973	0.06944551
164	0xbd62bb0c	-0.055354163
165	0xbbace665	-0.0052764886
166	0x3dcaf3da	0.09909792
167	0x3e229724	0.15877968
168	0x3cd0a585	0.02546955
169	0xbd1178f1	-0.03551573
170	0x3c41b7e0	0.011823624
171	0x3d308375	0.043094117
172	0xb94f2350	-0.00019754213
173	0x3c2edfc8	0.010673471
174	0x3da55064	0.08071974
175	0xbd3f7412	-0.046741553
176	0xbcc3d6a4	-0.02390606
177	0xbc749875	-0.014928927
178	0x3d570227	0.052492287
179	0xbd9c3d13	-0.076288365
180	0x3e3bf9fa	0.18357077
181	0x3c293b47	0.010329074
182	0x3dd6d811	0.1049043
183	0x3cc6659c	0.024218373
184	0xbc73d404	-0.014882091
185	0x3d8705b0	0.06592882
186	0xbb4ad36c	-0.003094877
187	0xbd658916	-0.05603894
188	0x3e280f22	0.16412023
189	0xbd5ada0e	-0.05343061
190	0xbd1e5422	-0.038654454
191	0xbca75b1c	-0.020429187
192	0x3d6c0afc	0.057627663
193	0xbd455b1e	-0.0481826
194	0x3c43a7a7	0.011941827
195	0x3c631fb7	0.013862542
196	0x3dc9ba64	0.09850004
197	0x3d4f3b1d	0.050593484
198	0x3c202ff3	0.009777057
199	0x3dc6290b	0.09675797
200	0x3d2456d7	0.04012188
201	0x3db4e837	0.08833354
202	0x3b41967f	0.0029539166
203	0x3d571381	0.052508835
204	0x3d318abf	0.04334521
205	0x3d9fbf03	0.078001045
206	0x3e1d1014	0.15338165
207	0x3c8a48e8	0.016880468
208	0x3d3490e2	0.044083484
209	0xbc81ea6b	-0.01585885
210	0x3d502664	0.050817862
211	0xbcd80a06	-0.026371967
212	0x3c55f517	0.013058922
213	0xbbc9ed61	-0.006162331
214	0x3e262f35	0.16228946
215	0xbd6d2bf7	-0.057903256
216	0x3c3f26e2	0.011666985
217	0x3cf45ad0	0.029828459
218	0x3cd7d5ed	0.026347125
219	0xbca0e515	-0.019640485
220	0x3d42c8d8	0.04755482
221	0x3d17610e	0.036957793
222	0xbd3e1d9b	-0.046414953
223	0xbd13cac0	-0.03608203
224	0xbd2e01a9	-0.042482052
225	0x3dbc28ab	0.09187444
226	0x3cf5632c	0.029954515
227	0x3d7fe4f2	0.0624742
228	0x3c104ed1	0.008807854
229	0x3da1f96e	0.07908903
230	0x3d2e6196	0.042573534
231	0x3d3ce18c	0.046113536
232	0x3cf1eb23	0.029531067
233	0xbd28f63e	-0.04125046
234	0x3d9e2fb9	0.07723946
235	0xbc5bb651	-0.013410167
236	0xbd3f434d	-0.046695042
237	0x3d172b5d	0.03690659
238	0x3d3b048c	0.045658633
239	0x3cfd1318	0.030892894
240	0xbd7a8707	-0.06116393
241	0xbd82728c	-0.06369504
242	0x3dab86eb	0.08375343
243	0xbd006ccf	-0.031353768
244	0xbc1d2e9d	-0.009593633
245	0x3d1f7313	0.038928103
246	0x3d9fb7d9	0.07798738
247	0xbd26040f	-0.040531214
248	0x3c8665ca	0.016405959
249	0xbc53b115	-0.012920638
250	0xbd30a260	-0.043123603
251	0xbd540c26	-0.0517694
252	0x3d67e259	0.056612346
253	0x3ddc9cb9	0.1077208
254	0xbc55df31	-0.013053701
255	0x3d2d42f1	0.04230017

net.4.weight f4 [1, 256]
0	0xbe4dbe1a	-0.20092049
1	0xbe8a8483	-0.27054223
2	0x3c95e5fe	0.018298145
3	0xbe549cd3	-0.20762949
4	0xbe375e81	-0.17907144
5	0xbe4aed43	-0.1981707
6	0x3c4bb2f5	0.012432803
7	0xbe3ccad2	-0.18436745
8	0x3dd3db9d	0.10344622
9	0x3da1065e	0.078625426
10	0x3bf0a773	0.0073441803
11	0xbe7e092a	-0.24808183
12	0xbd1d251d	-0.038365472
13	0xbe95226b	-0.2912782
14	0x3edd1b01	0.43184665
15	0xbe9572eb	-0.29189238
16	0x3e47f05d	0.19525285
17	0x3cbada99	0.022809314
18	0x3d3f246e	0.0466656
19	0x3d0e41fd	0.0347309
20	0xbd056d97	-0.032575216
21	0x3ee55419	0.44790724
22	0xbe968450	-0.2939782
23	0x3eb963ea	0.3620904
24	0xbe889195	-0.2667357
25	0x3ed3e761	0.41387466
26	0xbe801f09	-0.25023678
27	0xbe9528a7	-0.29132578
28	0x3f24b195	0.6433347
29	0xbe7317e9	-0.2373959
30	0xbe8182f8	-0.25295234
31	0xbe4e0115	-0.201176
32	0xbe6cf3fb	-0.23139946
33	0x3edb055f	0.42777535
34	0x3ee093c0	0.43862724
35	0xbe65cdaa	-0.22441736
36	0x3ed5097d	0.416088
37	0xbea0cf91	-0.3140836
38	0x3d571f3c	0.05252002
39	0xbe6b2864	-0.22964627
40	0x3c35fd0b	0.011107693
41	0x3ece241e	0.4026193
42	0xbe3ec009	-0.18627943
43	0x3ecddced	0.40207615
44	0xbe43787e	-0.19088933
45	0x3ef4c3c1	0.47805598
46	0xbdc8470c	-0.09779176
47	0x3ebd903b	0.37024102
48	0x3e88f69e	0.26750654
49	0x3b172899	0.002306497
50	0xbdbcd1d4	-0.09219709
51	0xbe855db2	-0.26048046
52	0xbe474c7b	-0.19462769
53	0x3ece9c44	0.40353596
54	0xbe491813	-0.1963809
55	0xbae69aaf	-0.0017593707
56	0xbe8ed72d	-0.2789854
57	0xbe8042f4	-0.2505108
58	0x3dc4c629	0.096081086
59	0x3e59e6d1	0.21279456
60	0x3d53d041	0.05171228
61	0x3f2343ee	0.6377553
62	0x3cbf3dbe	0.02334487
63	0x3f117edf	0.56834215
64	0xbe3f07b9	-0.1865529
65	0x3ef96f71	0.48717836
66	0x3ece6326	0.4031002
67	0xbe62f5fd	-0.2216415
68	0xbe3b908b	-0.18316858
69	0x3dcaf15d	0.09909318
70	0x3ccee59d	0.025255973
71	0xbe594217	-0.21216618
72	0xbe8bfffd	-0.2734374
73	0x3ed8428c	0.4223827
74	0xbd2d8f06	-0.042372726
75	0x3ec75733	0.38933715
76	0x3ea31312	0.31850487
77	0x3e09375b	0.13400023
78	0xbe7414b8	-0.23836029
79	0x3d49d832	0.049278446
80	0xbf04c292	-0.5185939
81	0x3ecf7bda	0.4052418
82	0xbe810ec7	-0.25206587
83	0xbe6d8c18	-0.23197973
84	0xbf2ba4f1	-0.67048556
85	0x3e9814c3	0.2970334
86	0x3e1f0bb7	0.15531813
87	0xbe801108	-0.25012994
88	0x3d70080e	0.05860143
89	0x3c8bcbee	0.017065015
90	0x3de5c381	0.1121893
91	0xbe916042	-0.2839375
92	0x3eaaf85d	0.3339261
93	0x3eb2d0bb	0.34924874
94	0xbe659d41	-0.22423269
95	0xbe8ac297	-0.27101585
96	0xbe62befa	-0.22143164
97	0xbe830e3c	-0.25596797
98	0xbe51434c	-0.20435828
99	0xbe549ed2	-0.2076371
100	0xbe935265	-0.287738
101	0xbe80a546	-0.25126094
102	0xbe804c16	-0.2505805
103	0x3ef9ef73	0.48815498
104	0x3e71c2d2	0.23609474
105	0xbe628309	-0.22120298
106	0xbe58df22	-0.21178868
107	0xbe6d7e7f	-0.23192786
108	0xbe386b55	-0.18009694
109	0xbe408db3	-0.18804054
110	0xbf98922b	-1.1919607
111	0xbf83f024	-1.030766
112	0xbe981323	-0.297021
113	0x3ddb32d7	0.10703056
114	0xbd8db038	-0.06918377
115	0x3ed3e61f	0.41386506
116	0x3c81e5f2	0.015856717
117	0xbe1326fc	-0.1437034
118	0x3efbf54c	0.49210584
119	0x3ebc99c5	0.36836067
120	0xbe3fbb0e	-0.187237
121	0xbe62af57	-0.221372
122	0x3d8f6f9b	0.07003709
123	0x3e60a6d4	0.2193864
124	0xbe1ee26b	-0.15516059
125	0x3dfd7f51	0.12377799
126	0xbe32cbb0	-0.17460513
127	0x3d68e7a0	0.05686152
128	0xbe984734	-0.29741824
129	0xbe17d07d	-0.14825626
130	0xbe8e7a9a	-0.27827913
131	0xbe6eec66	-0.23332366
132	0xbea36880	-0.31915665
133	0x3ebbf95a	0.36713678
134	0x3e5461d7	0.20740448
135	0x3cc934cb	0.024561306
136	0x3c73ccde	0.014880387
137	0x3e87ae2c	0.2650007
138	0xbe5b04d0	-0.21388555
139	0x3d28632c	0.041110203
140	0xbe89bc75	-0.26901594
141	0x3f035f00	0.51316833
142	0x3eb8934d	0.36049882
143	0xbe8a6a95	-0.2703444
144	0x3c6bd89b	0.0143949045
145	0xbe5b7ff2	-0.21435526
146	0x3e148651	0.14504363
147	0xbe3deac4	-0.18546587
148	0x3ee5e15f	0.44898507
149	0x3c8e916d	0.017403329
150	0xbe5989d6	-0.21243986
151	0xbe82c0bc	-0.2553767
152	0xbe41718e	-0.18890974
153	0x3ef36398	0.47536922
154	0xbe7a17c5	-0.2442313
155	0xbe6086f7	-0.21926485
156	0xbe87628a	-0.26442367
157	0x3edd49f4	0.43220484
158	0xbe37289c	-0.17886585
159	0xbe53d60b	-0.2068712
160	0x3ebf9af2	0.374229
161	0x3ec030b2	0.37537152
162	0x3f080e6b	0.53147
163	0x3e9b8bb7	0.3038003
164	0x3d43e86c	0.047829077
165	0x3d9221c8	0.071353495
166	0x3eaf65eb	0.34257445
167	0x3f043fa8	0.5165963
168	0x3b0db60c	0.00216234
169	0x3d8de920	0.06929231
170	0xbc7f6d9c	-0.015590098
171	0xbe53b28e	-0.20673582
172	0xbe94f027	-0.29089472
173	0xbc96d27f	-0.01841092
174	0xbf0a08d1	-0.539197
175	0xbea2d9cc	-0.3180679
176	0x3e908fb0	0.28234625
177	0xbe382a3f	-0.17984866
178	0xbe85afe8	-0.26110768
179	0x3d5ab1be	0.053392164
180	0x3f0c949a	0.5491425
181	0x3e8396e8	0.2570107
182	0x3ef250b2	0.4732719
183	0x3f468499	0.7754608
184	0xbe36286a	-0.17788854
185	0xbe91f583	-0.28507623
186	0xbe4166f6	-0.18886933
187	0xbe4d66f7	-0.20058809
188	0x3ed2e073	0.41186866
189	0x3eb049ac	0.34431207
190	0xbc68e498	-0.014214657
191	0xbe94aa6e	-0.29036278
192	0xbe6307fd	-0.22171016
193	0xbe80741f	-0.25088593
194	0x3eaca1b2	0.33717114
195	0x3d985edd	0.07439969
196	0x3ed96da1	0.42466453
197	0x3ee6cadb	0.4507664
198	0x3d5f7c65	0.05456199
199	0x3eaebb81	0.3412743
200	0x3d6ae406	0.057346366
201	0x3eb8c005	0.36084
202	0xbe6aaa41	-0.22916509
203	0xbe23b11c	-0.1598553
204	0x3e7f62ff	0.24940108
205	0x3e75324c	0.23944968
206	0x3ec890a8	0.39172864
207	0xbe41a175	-0.18909247
208	0xbca50617	-0.020144505
209	0x3e9d1e7b	0.30687317
210	0x3ca99d61	0.020704927
211	0xbe42bd8d	-0.1901762
212	0x3d85c454	0.06531587
213	0x3eba3922	0.36371714
214	0x3eac36de	0.3363561
215	0x3da97e5b	0.082760535
216	0x3d9c46ef	0.07630717
217	0x3ec27697	0.37981102
218	0x3db9f9cf	0.0908085
219	0xbe65d3fb	-0.22444145
220	0xbe4c189f	-0.19931267
221	0x3d7c1e3f	0.061552282
222	0xbd6cc4b7	-0.05780479
223	0xbe35e128	-0.17761672
224	0xbf9e68f9	-1.2375785
225	0x3eaca2cb	0.3371795
226	0xbe2def91	-0.16985919
227	0xbd33666d	-0.043798853
228	0x3ea1b66f	0.31584498
229	0x3e7ca373	0.24671726
230	0xbe5d06af	-0.21584581
231	0xbd4b0f54	-0.049575165
232	0xbf1b72a2	-0.6072179
233	0xbe66b157	-0.22528587
234	0x3ede43ee	0.434112
235	0x3d2edcea	0.04269115
236	0xbe5c0220	-0.21485186
237	0xbe8ad3e5	-0.27114788
238	0x3ebd514c	0.36976087
239	0x3f010709	0.5040136
240	0xbec140d2	-0.37744766
241	0x3da029b9	0.07820458
242	0x3e95315e	0.29139227
243	0xbe451afd	-0.19248576
244	0x3c8e2bac	0.017354809
245	0x3e92e275	0.28688398
246	0x3ebda8be	0.37042803
247	0xbc7b85db	-0.015351738
248	0xbe8aae00	-0.27085876
249	0xbe4159a4	-0.18881851
250	0xbd8b6c15	-0.068077244
251	0x3ce68b1b	0.028142503
252	0xbe849937	-0.25898144
253	0x3ee3975b	0.44451413
254	0xbe6ecea6	-0.23321018
255	0x3e9b12fa	0.30287915
