DRL/TrainedModel/act_weights.pkl (torch, 308791 bytes, 7 tensors)

a_std_log f4 [1, 2]
00000000: 3ac2 82bf 2e16 7cbf
-1.0215523 -0.98471344

net.0.weight f4 [256, 39]
00000000: 0651 153e bdb7 4abd b2ff 65bb 6e0b 6dbe
00000010: b6ed 85bc c522 3c3e 9f33 6b3d 931b 83bd
00000020: cbc8 303d 404b d03c 9f1a a0bd 71b7 a33c
00000030: 2c0f 09be 8776 b9bd 741a 37be b1e4 4c3d
00000040: d514 82bc 283d d5bd e3e4 28be 3844 fc3d
00000050: daa7 58bd 1af5 43be d361 903d eeb2 28be
00000060: 4c6c 32bd a23a 3cbe eb1c 173d 4d17 42be
00000070: 244b dabc e01c 343a ac93 8dbd 690a 23be
00000080: 9d3e 27be 76fb 2bbe d9a4 b53d a16e 7dbd
00000090: 04b7 3abe 2abe 6bbd b10f a43d 7cfc 843e
000000a0: 2c03 353e 3a81 5bbd fc6a f83c b39e 99be
000000b0: 897f a9bd 150a ed3c feaf 7abe 6bf1 bc3c
000000c0: 347b 85bd 4d60 213e 1123 0e3e b37b 873c
000000d0: 4a2e 0dbe 8296 fabd e9df adbd c86a f8bd
000000e0: 925f ab3b 8a2b 68bd aa16 bd3d 0b2f d4bc
000000f0: 7623 42bb 1d84 363d a1bb a3bd aab5 42bc
00000100: 8d12 d03d c576 25be c89c b6bd 39a9 103e
00000110: 00d6 5c3c d98b 023e 05f8 123e 4489 1a3d
00000120: a1a3 0f3e 1677 09be 3b38 8abc 80f9 15be
00000130: 230d e73d 401b 983d 0739 a63d 1200 17be
00000140: d2e3 8e3d ade0 94be a710 413c ac7d 92be
00000150: 0343 21bd 742b 9cbc 5848 ee3d 286c 02be
00000160: 3b9b ccbc 55b1 e7bd 2812 11be d1f1 df3d
00000170: d947 123d 06e0 4a3c 6bfe 23be e41e 87bd
00000180: 6e6d 04be 32c7 ee3d b8f5 7bbd d934 bbbd
00000190: 06a0 e33c a402 20be 9f48 98bd 531e 80bd
000001a0: fb7c fb3d 7f40 5cbc 6efc 34be 37f9 27be
000001b0: 6c82 34be 8326 e9bc e522 5e3c 2f22 ad3d
000001c0: 502c 833c 2b50 22bd 5d49 e0bc 28e2 183d
000001d0: 6863 03be 6010 a23d 2a05 b8bc be79 1cbe
000001e0: 3631 de3d 181e 773c 2ec0 05be 8fa9 babd
000001f0: f95a bfbd 2848 11be daf3 1fbe 0482 1c3b
00000200: 9595 cfbd d366 8c3d 4be2 ed3d ba5e d1bd
00000210: 933b d73d 1767 3bbd 148b fdbd 64d5 663d
00000220: b821 a2bb 97b6 24bc a13a 5bbd 1f04 203d
00000230: 9270 083d f2e8 48bd d6e2 be3d 7fbe ba3c
00000240: 45a5 81bc e05c 8f3c 5e12 973d 2c77 013e
00000250: 51ed 8e3c 2643 d3bd da7a e8bd adad a2bc
00000260: 7d1d 1bbe 207a 0bbe 655d b3bd c301 383d
00000270: 0ad8 9fbd 9f3f 0fbe dd2e ed3d d794 53be
00000280: c2d3 383b e9d2 203e 2ac7 dabd 080a 68bd
00000290: bddb b63d fcb5 88bd 6cca 1b3e 199f 1ebe
000002a0: 3297 aabd d8a9 89bd 89b4 debd b412 45b8
000002b0: c7ef 6c3a 7150 813d 67f0 d03d 0799 113e
000002c0: 29b2 91bd 5a3a f1bd 9a69 cc3d 0a5e e43d
000002d0: 9109 21be ea44 10be 2b47 89bd d82d 1ebd
000002e0: 8f0a 33be e6ad 3dbe cc32 8dbd bdaa acbc
000002f0: 1838 f03d 050b 31be 3904 243d 8cec 923c
00000300: 92ce d1bc fa86 f13d 6139 ec3d c8b7 1abe
00000310: b194 013e 12af 303d d176 d73e e4b4 58be
00000320: 27a4 cabe a08e d1be 1e78 acbe cdf0 433c
00000330: 09bd b7bd 2f7a b0bd b545 bb3d 4958 3abb
00000340: a46e b83d 146a 9d3d 4d5c fb3d 271f 12bd
00000350: ecda 153e f2c6 e3bd c5b7 d43d 1f22 1ebe
00000360: a607 f9bd abb6 abbd 00d4 6f3d 04b7 9d3d
00000370: a671 023e 77c4 683c 7f3e 96bb 1c2c d6bd
00000380: 06fe 6cbd 2592 9fbd bc9e b7bd f8ce 11be
00000390: fa14 c7bd db33 843d 3c53 253d ba80 663d
000003a0: 67f2 e7bd 75bc 133d c21f 4abd fd59 1f3e
000003b0: 068f 863d a321 cc3d b370 8bbe 8a24 67be
000003c0: e0d3 94be b5a0 a6be be12 65be 750f e3bd
000003d0: cb57 033d 7262 a9bd 4bc6 10bd 5216 1ebe
000003e0: 13cb b1bc 60fb 763c 0728 c9bc 589a 863d
000003f0: 1a95 d43d 6d04 94bd 696f afbd 73fc d2bd
0.14581689 -0.049491633 -0.0035095033 -0.23148891 -0.016348701 0.18372639 0.057422277 -0.06401744
0.04316024 0.025426507 -0.078175776 0.019984933 -0.13384694 -0.090558104 -0.17881185 0.050022785
-0.015879074 -0.10412055 -0.16493563 0.12317699 -0.05289445 -0.19136468 0.070499085 -0.16474506
-0.04356031 -0.18381742 0.036892813 -0.18954201 -0.026647158 0.0006870758 -0.06912932 -0.1592194
-0.16332479 -0.16795143 0.08869333 -0.061873082 -0.18233877 -0.0575544 0.080108054 0.2597388
0.17676991 -0.053590037 0.030324452 -0.3000389 -0.082762785 0.028935472 -0.24481198 0.023064336
-0.0651764 0.15759392 0.13880564 0.016538477 -0.13787189 -0.12235738 -0.08489973 -0.12129742
0.0052298987 -0.056682147 0.092328385 -0.025901338 -0.0029623187 0.044559587 -0.07994772 -0.011884132
0.10159788 -0.16158588 -0.089166224 0.14127053 0.013478756 0.1274866 0.14352424 0.037728563
0.14027263 -0.13424334 -0.016872516 -0.14645958 0.112818025 0.074270725 0.08116346 -0.1474612
0.06977047 -0.29077664 0.011783755 -0.28611505 -0.039370548 -0.019063689 0.11634892 -0.12736571
-0.024976363 -0.1131312 -0.14167082 0.10934795 0.03571305 0.012382513 -0.16015022 -0.06597689
-0.12932369 0.11659087 -0.061513633 -0.09140939 0.027786266 -0.15626007 -0.074357264 -0.06255784
0.122796975 -0.013443111 -0.1767442 -0.16403662 -0.17627877 -0.028460747 0.013558124 0.08453786
0.01601234 -0.039627235 -0.027378732 0.037325054 -0.12830889 0.079132795 -0.0224634 -0.15280816
0.1084923 0.0150828585 -0.13061592 -0.09114372 -0.093435235 -0.14187682 -0.15620366 0.0023881206
-0.101359524 0.0685555 0.116154276 -0.10223146 0.1050941 -0.04575261 -0.12380043 0.05635585
-0.0049478672 -0.010053298 -0.05352271 0.03906643 0.03331048 -0.04905028 0.09320609 0.022795914
-0.015825877 0.017500341 0.0737655 0.12643117 0.017447146 -0.10315542 -0.11351557 -0.019858206
-0.15147968 -0.13620806 -0.08758048 0.044923555 -0.07804878 -0.13989113 0.11581204 -0.20662247
0.002820239 0.15705456 -0.10682519 -0.05665019 0.089286305 -0.06675336 0.15213937 -0.15490378
-0.083296195 -0.06721848 -0.10874278 -4.698588e-05 0.0009038415 0.06314171 0.10202103 0.14218532
-0.071140595 -0.11778708 0.099810794 0.11150749 -0.15726306 -0.14088789 -0.06703027 -0.03861794
-0.17484497 -0.18523368 -0.06894454 -0.021077508 0.11729449 -0.1728936 0.04004309 0.01793506
-0.025611196 0.11793323 0.11534382 -0.1510917 0.12654378 0.04313571 0.42082837 -0.21162754
-0.39578363 -0.40929127 -0.33685392 0.011959267 -0.089716025 -0.08617055 0.09144155 -0.002843397
0.09005478 0.076862484 0.12273464 -0.03567424 0.14634293 -0.1112193 0.10386614 -0.15442704
-0.12159662 -0.083844505 0.05855179 0.07700923 0.12738666 0.014206997 -0.004585087 -0.10457632
-0.057859443 -0.07791547 -0.08965823 -0.14239109 -0.09720798 0.06455203 0.04036258 0.056275107
-0.113255315 0.0360684 -0.049346693 0.15561672 0.06570248 0.09967353 -0.2723442 -0.22572532
-0.29067898 -0.32544485 -0.22370431 -0.110869326 0.032066148 -0.0827073 -0.035345357 -0.15438202
-0.021703279 0.015074581 -0.02455522 0.065724075 0.10380001 -0.07227407 -0.08566172 -0.10302057

net.0.bias f4 [256]
00000000: 05aa f5bd 17e6 053b 0deb 39be e46e 843d
00000010: b5d6 3fbe ebfd 38bd fc15 67bd 7670 06bd
00000020: ea19 40be 3539 1abd 5d23 4fbd d11a f03d
00000030: 87ac b43c ee62 6abd 8281 5c3c 5dc8 1dbe
00000040: 088c 1e3d 9629 283d 8c6d 933d 0a73 28be
00000050: d541 fbb9 cebf 82bc e3c1 863d d411 d73d
00000060: 80e0 cd3c 0814 f5bc 7d97 d9bd 748b cc3d
00000070: f65e 05be c08e a8bb 6274 073e 12e5 0a3e
00000080: ee29 60be 9a64 06bd d258 cdbd cbb4 17be
00000090: 565e b8bd 8106 223b 7631 e63d 927a ffbd
000000a0: 2ece 0a3d 3283 dbbd cb5c febd 2ebf d7bd
000000b0: 4590 0e3d 4c07 c2bd a637 0a3c 80b4 773b
000000c0: 2b47 d4bd 989c 5cbd 5ff6 b3bc 5970 4abd
000000d0: 7ba1 19bd cfda 71bd c212 52bd f59b b9bd
000000e0: 29c1 8d3d 01a1 2bbc dd87 95bd b4b3 8abd
000000f0: 1e2e a3bd 31d0 afbc 18ad 45bc 99ad 193e
00000100: 5699 53be bbee e83d 4a96 0ebe ae83 1abd
00000110: c986 d7bd 101b 6bbd 7b52 e13d 59a7 db3d
00000120: fe22 a8bc 41d3 9bbb 964a 90bc 87d6 97bd
00000130: 4c46 6d3d 5462 a4bb a4fd 28bc 76e1 51bd
00000140: ad51 473d b23e 083e 4fbf 00bd 4403 0ebe
00000150: 725d ee3c 0cf4 00bd 3bc2 faba 1ee5 9fbd
00000160: 8c99 1fbd fbe4 4fbd fb7a 9fbd dce1 56be
00000170: 2a31 b33d 9661 00be 6889 05bd cdce c5bc
00000180: 6188 dabc b4d4 83bb 6ea9 81bd 517d a2bd
00000190: 80d4 913d c522 08bd 45fb 04be 928f 013e
000001a0: 46d9 093e d4f2 d4bd 59a6 93bd 161f 853d
000001b0: e058 a9bd 044d 8dbd c16e 3dbe cfe6 8a3d
000001c0: 47df d43d 345b 433d 21fb d2bd 7068 883c
000001d0: 50fc 5fbe f538 933c fddb f6bd 64ca c43c
000001e0: 6ab1 2c3d 3b1b fdbd bf6c b3bd aa94 1d3d
000001f0: d983 cfbc 3461 0cbe 312a 803d 70ca 613c
00000200: bc82 46be 5296 d1bd 9cec 883d c6e5 c3bd
00000210: 2e94 86bd 156d bf3b 8434 cb3c b532 203d
00000220: d9cc ef3d 8ae2 e4bd 6536 98bd 1a11 f53c
00000230: 3060 81bd f299 6f3d 90aa d43d dffd eebc
00000240: 67d4 ffbd f5e7 d9bd d236 86bd 259b 01be
00000250: 426e 04be 213a 093e 421a 08bd beee ecbd
00000260: 8516 173d 8a7a b93d 80af b8bd e42e aa3d
00000270: 837d a73d 0c27 b3bd 9b12 87bc dfd1 173e
00000280: fc52 adbd 300f ef3d 12aa 37bd f76a 9ebd
00000290: e73e 703d 29ff dfbd ab43 6e3d fe72 ecbd
000002a0: 6818 15be 81af 21be 4e22 dd3d 1d8c b83d
000002b0: 3979 97bd 814e 24be 9fe0 13be 387e 10be
000002c0: 66ea f0bd 3658 f0bc ef5f 6fbd e448 083d
000002d0: 76cc fdbd a2c3 bcbd b7f5 783a ab2d 99bd
000002e0: ef0f 39be ba92 e9bc 1228 4ebe 9397 0ebd
000002f0: f314 b6bc d074 1bbc 20fd 1fbe eed5 eabd
00000300: 605e 833d 20e0 05be dc87 fdbd 2fce 703d
00000310: 703a 273d d6a5 12be 9f24 cc3d 82d8 a63d
00000320: 53d0 433d ba5f 1ebd aada e83d a29b f5bc
00000330: 6bf0 043e d7e1 35be 888d 08bc 8252 78bd
00000340: 0c44 853d 9f72 0fbe c17f 203e f86d 96bc
00000350: ba6f 3e3c a868 b13c 2539 0ebd 04df b2bd
00000360: 4379 bb3d ac91 3dbe 207f a83d f83e 25be
00000370: 7226 36be 7d35 6f3d cde3 bcbd 367c b23c
00000380: ea72 ae3c 5b4c f2bd 64e6 2f3d 925c 553d
00000390: 71ae 8dbc 5ce7 05be 4b41 9cbd 0f4a 0d3e
000003a0: eba7 f4bd d92f aa3c e939 713d 06f6 57bd
000003b0: 7fde 373d 5f00 e6bd a3fe d3bd 7d53 633d
000003c0: 91f5 583d ee9d 16be a55f ee3c 8597 e1bd
000003d0: 3dd3 a8bd 2e60 b2bd a5df ebbd e062 dfbc
000003e0: 8d50 37bc dfe1 44bd d2af e73b 8915 733d
000003f0: 53a3 0cbe c943 e33d c515 b13d 59e8 a5bd
-0.11995319 0.0020431334 -0.18156071 0.06466463 -0.18734248 -0.04516403 -0.05641745 -0.032822095
-0.18759885 -0.037652213 -0.050570834 0.11723865 0.022054924 -0.057223253 0.013458611 -0.15408464
0.038707763 0.041055284 0.07198629 -0.16450134 -0.000479235 -0.0159606 0.0657995 0.10501447
0.025131464 -0.029916778 -0.10624597 0.09987536 -0.13024506 -0.0051439703 0.1322799 0.13563946
-0.21890995 -0.032810785 -0.10026707 -0.14815061 -0.09002368 0.0024723115 0.11239903 -0.1247455
0.033888035 -0.10718383 -0.124200426 -0.105345115 0.034805555 -0.09474048 0.008436119 0.0037796795
-0.10365137 -0.053860277 -0.021968065 -0.04942355 -0.037507515 -0.059046563 -0.05128742 -0.090629496
0.06921608 -0.010475398 -0.073013045 -0.06772557 -0.079677805 -0.021461578 -0.012065195 0.15007629
-0.20663962 0.11373659 -0.13924518 -0.037723236 -0.10523755 -0.057398856 0.1100206 0.107252784
-0.020524498 -0.004755408 -0.01761369 -0.07413965 0.05792837 -0.0050166044 -0.010314379 -0.051240407
0.048661876 0.13305166 -0.031432446 -0.13868433 0.029097293 -0.03148274 -0.0019131372 -0.078073725
-0.038964793 -0.050755482 -0.077871285 -0.20984596 0.08749612 -0.12537226 -0.032601744 -0.024146462
-0.026676359 -0.004023159 -0.06331144 -0.079340585 0.07120609 -0.033236284 -0.12986477 0.12652424
0.1346179 -0.10397878 -0.07209463 0.0650007 -0.08268905 -0.06899455 -0.1849928 0.067823045
0.10394149 0.0476944 -0.10301805 0.016651362 -0.21873593 0.017971495 -0.12053678 0.024022289
0.042161383 -0.123587094 -0.08760976 0.038471855 -0.025331425 -0.13708955 0.06258047 0.013781175
-0.19385809 -0.102337494 0.06685755 -0.0956531 -0.06571232 0.005841861 0.024805315 0.039110858
0.117089935 -0.111760214 -0.0743225 0.029915381 -0.063171744 0.058496423 0.10384095 -0.02917379
-0.124916844 -0.106399454 -0.06553425 -0.12656839 -0.12932685 0.1340108 -0.033228166 -0.11568974
0.03688671 0.090565756 -0.09017849 0.08309725 0.08178236 -0.08747682 -0.016488364 0.14826153
-0.08463094 0.11672819 -0.044839926 -0.07735246 0.05865374 -0.1093734 0.058170002 -0.115453705
-0.14560091 -0.15789606 0.10797559 0.090110995 -0.07396168 -0.16045572 -0.14441155 -0.14110649
-0.11763458 -0.029338937 -0.0584411 0.03327264 -0.123925135 -0.092170015 0.00094970636 -0.074794136
-0.18072484 -0.028512347 -0.20132473 -0.03481252 -0.022226786 -0.0094882995 -0.15623903 -0.11466585
0.06414485 -0.13073778 -0.12379429 0.058790382 0.040827215 -0.14321074 0.099679224 0.08146764
0.047806095 -0.03866551 0.11369832 -0.029981438 0.12982337 -0.17761932 -0.008334525 -0.06062556
0.065071195 -0.14008568 0.15673734 -0.018362984 0.011623317 0.02165635 -0.034722466 -0.08733943
0.09153988 -0.185126 0.08227372 -0.16137302 -0.17788103 0.05840062 -0.09223137 0.021787744
0.02129503 -0.1183097 0.042944327 0.052090235 -0.017295094 -0.13076538 -0.07629641 0.13797782
-0.1194609 0.020774769 0.058893118 -0.05272486 0.044889923 -0.112305395 -0.103513025 0.055499543
0.052968565 -0.14708683 0.029098341 -0.11015228 -0.082434155 -0.08709751 -0.11517266 -0.027268827
-0.011188638 -0.04806697 0.00707052 0.05934671 -0.13734178 0.11096913 0.0864673 -0.081009574

net.2.weight f4 [256, 256]
00000000: 942a 2cbd 6f30 443c 0d2c f0bd 4689 41bd
00000010: 8951 33bd 3115 793d 7b8d d53c e855 bc3d
00000020: 3524 eaba 7b79 65bd 9388 b3bd fa6a 623d
00000030: 34f3 cd3d e15e 053e 0ebb b0bd 279d b5bd
00000040: f116 6f3e 44a7 39bb 34e0 0b3d 9501 19be
00000050: a736 b93c 6f05 173e 5aeb 53be 0008 4839
00000060: cec2 2b3d 6868 d3bd 08ce 98bc d921 abbd
00000070: d4bb 1c3d 2c26 28bd c02e babb 78b0 3dbc
00000080: 924b f2bc 3810 5f3c 9550 173d a801 0b3e
00000090: ce29 1e3e 4678 fabd f365 ae3d 2494 bfbc
000000a0: b46a ebbd 6d8c 913d df1d 943d 6219 6db9
000000b0: 75e6 bf3c 96d3 87bc 4c23 0cbc 9098 a23d
000000c0: 90ec 98bd 3f82 c83d 7afa 733d e987 27bd
000000d0: 6e96 90bc 354a cb3c aa66 623d 4f35 aabd
000000e0: 3f78 89bd 2d5b c33c a512 9abd 1474 15bd
000000f0: c7ca 893d 4622 293d 5764 d1bd e542 603e
00000100: 9f8c ed3c bae4 05bd 00ee 173b c24d 363e
00000110: 009d ab3c c8a2 59bc 854d b6bd 5d39 133d
00000120: 4859 a63a 6df6 dc3c ecc7 ba3c 10d7 c0bc
00000130: 9f4c 9a3d 6d80 8a3d 5e5d d8bd d6f2 b9bd
00000140: 7de5 c2bd 1fa7 483e 28e5 b4bc 87d0 dfbd
00000150: 35f0 2dbd 8089 48bd d0dd e0bb 943f fdbc
00000160: d6fc ab3d b206 c03b fcb3 0bbd f279 28bb
00000170: 0009 c23c b907 66bb 3b10 bcbd 16fe b63d
00000180: 3e7c cf3c 1663 a63c 9c82 d5bd 3736 9dbd
00000190: df9b 243e ae57 d83c 09a8 173d 44b7 2abd
000001a0: e366 3cbc d9b5 083d fb0b 9abb 1b2f 08be
000001b0: 506a 92bc 5663 22bd 40d7 3cbd 19b6 c73c
000001c0: 86c0 8e3c f0b4 dc3c a68a 80bd 16ec 483d
000001d0: 9a61 0dba 408c 0f3d 1e33 1fbd b3d9 15be
000001e0: 8dc1 7fbc 7625 b1bc 1f94 94bd 09bc 67bd
000001f0: 9260 013b 114e c83c 5137 8bbd 147c 853c
00000200: 2648 8f3c 9afa dfbd 205f 68bb 8a67 26bd
00000210: 09b6 19bd 650e abbc fd6c b33d 4043 e8bc
00000220: 9a2c 213e 6a43 c5bc 65d0 0dbc 38e6 7c3d
00000230: b0b6 963d e325 063e a0a3 0abd 2f05 053d
00000240: 320b 7a3d 639c 60bc 8c4b 213d 9fa3 42bc
00000250: 9388 c83c a6e6 43bd 1a1e b2bd 4a78 91bc
00000260: 76d9 d5bc 49e3 893d 3759 bdbd 7b5f 8ebd
00000270: d222 e83d ceb0 29bd f336 42be 7c26 86bc
00000280: c10a d63c 742d 0ebc c84d ae3d 702e 713d
00000290: b588 223d 046e b5bd 7a79 1ebe 5acb cdbd
000002a0: 100b 53bd 00a5 9e3c 5189 70bd c45a 813d
000002b0: 6430 fdbc 7bd6 e8bc 5e88 33bd e04b 45bc
000002c0: 0fc9 0fbc aa30 993d 19f3 ebbd fda7 163e
000002d0: 3625 6bbd bc0d 44bd bbbf 22bd 857f e2bd
000002e0: d74c c8bc 58b8 b2bc 9029 cd3b 330c 763d
000002f0: 9e9f 353d 38f5 a23d d840 cd3c ad89 1a3c
00000300: a9bd fe3b 52f8 2d3d d90e 72bb bd70 28bd
00000310: ec18 e73c 4a89 e53d 4696 edbd d5fa ef3c
00000320: 3988 873d 00e3 ebbc 4643 2dbd 479b 0bbe
00000330: aef8 b83c 0ade 053c 2b73 c23d 4ca0 b93d
00000340: 9f1c 47bd cc88 b33d 2ce0 43be 2375 c13d
00000350: d5d5 83bd 0c82 92bc 9197 803d 9ecd 443d
00000360: 3348 81bc b6f9 2cbd f662 e93c 820a 62bd
00000370: e81b f7bc 2b21 c8bd a648 4c3d 2b7a ecbc
00000380: 907b e93c af00 22bd 226e 2f3d 9c00 c5bc
00000390: aa88 3f3e cd97 86bd 7f3b 0cbd e884 2c3d
000003a0: a7ad 5d3d ef43 babc 8a21 78bd de9c 7d3d
000003b0: 83b9 e93d 99e6 81bd bcc5 c3bc a711 84bd
000003c0: 0b87 4a3d 0766 08bd 4cb8 9f3a 52e9 9fbb
000003d0: bada 2e3d 04cd 053c 39e4 0db9 de0a 2e3d
000003e0: b7e0 643d b82c 1c3d e317 353b 56ae 113d
000003f0: 891e 8d3c c391 733d 2554 11bd d24e 56bd
-0.042032793 0.011974438 -0.11727152 -0.047250055 -0.04377893 0.060811225 0.02606844 0.09196073
-0.0017863574 -0.056024056 -0.08766284 0.055277802 0.10056153 0.13024475 -0.08629428 -0.08867865
0.23348595 -0.0028328458 0.034149364 -0.1494201 0.022609068 0.14748167 -0.20695248 0.00019076467
0.041933827 -0.10322648 -0.01865293 -0.08356065 0.038265064 -0.04105203 -0.0056818426 -0.011577718
-0.02957705 0.013614707 0.036942083 0.1357485 0.15445635 -0.122299716 0.08515539 -0.023386069
-0.114949614 0.07106862 0.0723226 -0.00022611537 0.02342532 -0.016580384 -0.008553337 0.07939255
-0.07466996 0.097904675 0.059565045 -0.0409011 -0.017649855 0.024815658 0.05527369 -0.08310949
-0.06712388 0.023847187 -0.075230874 -0.036487654 0.0672813 0.04129245 -0.102242164 0.21900518
0.028997717 -0.032688834 0.002318263 0.178031 0.020948887 -0.013283439 -0.089015044 0.035943378
0.0012691403 0.026972974 0.022800408 -0.02354005 0.075341456 0.067627765 -0.105646834 -0.090795204
-0.09516428 0.19595002 -0.022081926 -0.10928445 -0.042465407 -0.048959255 -0.0068623796 -0.030914105
0.08397834 0.005860173 -0.034107193 -0.002570745 0.023685932 -0.0035099818 -0.09182783 0.08935182
0.025327798 0.02031092 -0.104253024 -0.07676356 0.16075085 0.026408996 0.037025485 -0.041678682
-0.0114991395 0.03337655 -0.004701135 -0.1329922 -0.01787296 -0.039645515 -0.046103716 0.024378823
0.017425787 0.026941746 -0.06276445 0.049053274 -0.0005393267 0.035045862 -0.03886711 -0.14633827
-0.015610111 -0.021624308 -0.07254814 -0.05657581 0.0019741398 0.024451287 -0.0679766 0.016294517
0.017490458 -0.1093647 -0.003545709 -0.040626086 -0.037527118 -0.020880887 0.08761022 -0.02835238
0.1573967 -0.024079997 -0.008655642 0.06174299 0.073590636 0.1310039 -0.03384745 0.032475647
0.061045833 -0.0137091605 0.039378688 -0.011879831 0.024479186 -0.047827385 -0.08697148 -0.017757554
-0.02610467 0.06732804 -0.09245532 -0.06951805 0.113347664 -0.04142838 -0.18966274 -0.016375773
0.026128175 -0.008677829 0.08510929 0.058882177 0.039681155 -0.088588744 -0.15476027 -0.10048552
-0.051524222 0.019365788 -0.058724705 0.0631614 -0.030906864 -0.028422585 -0.04383122 -0.012042016
-0.008775963 0.07479985 -0.115209766 0.1471252 -0.057408534 -0.04786466 -0.03973363 -0.11059479
-0.024450703 -0.021816418 0.006261058 0.060070228 0.044341676 0.07956928 0.025055334 0.0094322385
0.007774074 0.042473145 -0.003693512 -0.04112314 0.028210126 0.112078264 -0.11600928 0.02929441
0.06617779 -0.028794765 -0.042300485 -0.13633452 0.022579517 0.008170614 0.09494623 0.09063777
-0.04861128 0.08766326 -0.19128484 0.0944617 -0.064372696 -0.017884277 0.06278909 0.048047654
-0.015781498 -0.04223033 0.028489571 -0.055185802 -0.030164674 -0.09771951 0.04987397 -0.028866848
0.028501302 -0.039551433 0.04282964 -0.024048142 0.18704477 -0.065719225 -0.034236427 0.042118937
0.054120686 -0.022737471 -0.06057886 0.06191718 0.11412337 -0.06342811 -0.023897998 -0.064486794
0.049445193 -0.033300426 0.0012185662 -0.004880109 0.042689063 0.008166555 -0.00013531827 0.042490833
0.055878367 0.038128585 0.0027632646 0.03556665 0.017226474 0.05946518 -0.035480637 -0.052321263

net.2.bias f4 [256]
00000000: e05b 123d ef19 09bd 8f8b e03a 88c9 9bbd
00000010: bbee e73c 87b9 233c 0a09 44bd 7d0c 273d
00000020: 5eed fa3c 9404 e3bc e1f1 f53c 2de5 80bd
00000030: b3aa 243d 9430 0dbd 168e 3a3d 3f0e e73c
00000040: 6d7e 853b 6fc2 cbbb a560 c73c 81ba b5bc
00000050: efa7 81bd 60c4 903c 45d0 01bd 1ae1 033d
00000060: edb8 a03d 2225 42ba a022 be3c 0206 46bc
00000070: 6718 2fbd 9422 793d a489 11bd dce7 a7bb
00000080: 28de 44bd 2bcc 413c 718c 19bd 53b1 b83a
00000090: 3f89 7bbd f8bd 01bd b5da d6bc bf27 e8bc
000000a0: c389 07bd 41cd 39bd d111 83bd 4f04 e53c
000000b0: 9868 723d 24af b3bd c690 8fbd 182d 5f3d
000000c0: 8943 0ebd ddc7 383d 97ab bdbc 5259 21bd
000000d0: 921c 73bd 984b 053c f7f6 96bc 3964 54bc
000000e0: 9e52 bebc 91f6 d73c c3a8 313c a38c de3c
000000f0: 2b5d 813d 8785 acbd 9f43 87bb 27e3 a23c
00000100: b5b8 1abd d5fb bcba 8b73 29bc 71ef 85bd
00000110: 43d2 25b8 4d59 e33c 58ae 95bd bfa5 15bb
00000120: 4bec c73c 7207 df3c 9540 513c 369e 95bd
00000130: 665c 1a3d 38bb ff3c cd98 cc3c 309f 623d
00000140: 0525 ffbc efe4 f5bc fc07 a03c 935c 583d
00000150: bad5 81bc 9a9d 81bd 30f0 92bd 651e 94bd
00000160: 096c abbc fb34 d23c 22ab 1dbd 97d5 1f3c
00000170: 6118 c6bd 0b0f c5bc 20f2 98bd 6692 5ebd
00000180: e4bd 88bd 4405 cbbc a643 febb 0de6 d93c
00000190: e360 6dbc 03e3 5ebd cca9 4fbd 7e30 9a3d
000001a0: ebc6 06bb c0e7 22bb 8c62 10bd 0384 393d
000001b0: ec3c 2e3d 993b 45bd 2495 aabc 6da8 98bd
000001c0: 3237 35bd bfb8 48bc a851 e7bc 2c10 0c3c
000001d0: 64e5 003d 9b62 e03c e7e1 a3bc acb7 ca3c
000001e0: 1ace 2ebc 56ea ed3b e232 eabc 31cf 1b3d
000001f0: de35 40bd 289c 313d 297b babc c221 453c
00000200: 9b2d 71bd 6c35 f23b a688 ecbc be9f cc3c
00000210: f74b 91bd f8d4 aebb 134c 893c 5b3f 993d
00000220: 4b05 863c 6e72 b2bd 54ac 093d cb87 cdbc
00000230: e7b6 443c 1fab 15bd 9bf0 b53c 4823 4e3c
00000240: f613 43bd 9e2e 013d 17a9 4ebd 8433 763d
00000250: c09a 5dbd 3a89 86bd 18f5 083d 6db6 1dbd
00000260: 693c d7bc 7f65 673c 0637 af3c 2939 c33c
00000270: 8aa7 1d3a f41c abbd 5177 9dbb f01d 04bd
00000280: 33da e9bb eb0a 9abd 5e07 433d 2295 ccbc
00000290: 1f10 663c d591 6bbd ca2c 30bc b9fc 5fbd
000002a0: 76e8 63bd 8667 293d 036d 8fbd 7974 96bd
000002b0: c8d4 82bd b71c d33c 4968 3ebd 69f4 ee3a
000002c0: 4c3f c0bd f20a 92bd b806 63bd 60ce 37bc
000002d0: 0d5b 103d 6341 39bd 9427 98ba 8653 273d
000002e0: 1688 18bd 6039 d93c 5db0 4dbd 5bc8 92bc
000002f0: 478c eabc 9e01 013d 24bc 243d a4f0 b6bd
00000300: f1d4 71bc 762f 89bc 20b6 96bc 8abf 813d
00000310: 89ca 74bd f233 debc d2b9 c83b 02af 1f3d
00000320: 69f9 06bc 5acc ce3c fe35 34bc 14cf 923b
00000330: 278a 14bd 8eea 68bd 10a4 2d3d fb97 9dbd
00000340: 6fdd e63c e791 af3c 51e7 9cbd ed26 36bd
00000350: 8cac 5ebd 8750 72bc 0a5a 0b3d d6eb 4dbd
00000360: 25df 8bbd 23a4 1a3d db66 bfbc c99e 5f3d
00000370: 2640 aa3c fd50 f8bc 0e28 cd3c b59e 79bd
00000380: 7a92 223c 372c bcbc 3e69 333c edc3 f03c
00000390: 416e f13c f720 19bc d0ea 67bd 154e 91bd
000003a0: c39c 63bd 3b47 0dbd cab9 0e3d e38a 39bd
000003b0: 3dfd a93d cdb6 97bd c395 d13c e6ce 423d
000003c0: db8e bbbc e39d 85bc be53 8b3c 6281 cbbc
000003d0: 980e 5b3b 7c61 51bd 393b 893d eaf7 dc3a
000003e0: c1b7 23bd 146d 4ebd 068e 2dbd ee5f 053d
000003f0: afc1 433d 4e40 10bd b974 4c3b 44aa 07bc
0.03573215 -0.033471998 0.0017131435 -0.076067984 0.028312078 0.009992964 -0.047860183 0.040783394
0.030630764 -0.027712144 0.030022563 -0.06293712 0.040201854 -0.034470156 0.04554566 0.028205035
0.004073909 -0.0062182466 0.024338076 -0.022183659 -0.06330859 0.017671764 -0.031692762 0.032197095
0.07847772 -0.0007406046 0.02320987 -0.012086393 -0.04274788 0.060823992 -0.035531655 -0.0051240753
-0.048063427 0.011828463 -0.03748745 0.0014090933 -0.061410185 -0.03167531 -0.026227335 -0.028339265
-0.033090364 -0.04536176 -0.063998826 0.027956156 0.05918178 -0.0877364 -0.07010035 0.054486364
-0.034732375 0.04511248 -0.02315311 -0.039391823 -0.05935342 0.008135699 -0.018428309 -0.012963348
-0.023232754 0.02636269 0.010843459 0.02716667 0.063165985 -0.08423906 -0.004127934 0.019883705
-0.037773807 -0.0014418314 -0.010342489 -0.065398104 -3.9534887e-05 0.027752543 -0.07308644 -0.0022834388
0.024404665 0.02722523 0.012771745 -0.07305567 0.037685774 0.031217203 0.024975205 0.055327594
-0.031145582 -0.03001639 0.019535057 0.05282266 -0.015848983 -0.06328888 -0.071747184 -0.0723236
-0.020925539 0.025660029 -0.038493283 0.009755514 -0.09672619 -0.024055025 -0.07468057 -0.054338835
-0.06676844 -0.024782784 -0.007759529 0.026598955 -0.014488432 -0.054415714 -0.05069904 0.075287804
-0.0020565342 -0.0024857372 -0.03525023 0.04529191 0.04253857 -0.04815254 -0.020823069 -0.07454
-0.04424209 -0.012251078 -0.028237179 0.008548778 0.031468764 0.027390769 -0.02000518 0.024745785
-0.010669256 0.007260601 -0.028588716 0.03803939 -0.04692637 0.043361813 -0.022763805 0.012031974
-0.058881383 0.0073916223 -0.028873753 0.024978515 -0.07094567 -0.0053354464 0.016759908 0.07482787
0.016359946 -0.08713232 0.03361161 -0.025089165 0.012006498 -0.036540147 0.022209456 0.012581654
-0.047626458 0.0315386 -0.050454225 0.060107723 -0.05410266 -0.06569143 0.033436865 -0.038504053
-0.026273923 0.01412332 0.021388542 0.023830967 0.000601404 -0.08355132 -0.0048054834 -0.032255113
-0.007136607 -0.07521614 0.047614448 -0.024973456 0.0140419295 -0.057512123 -0.010752866 -0.054684374
-0.055641614 0.041358493 -0.07003214 -0.07346434 -0.06388241 0.025770528 -0.046486173 0.0018230799
-0.09387073 -0.07130994 -0.05542633 -0.011218637 0.035243083 -0.045228373 -0.0011608475 0.04085114
-0.037239157 0.026516616 -0.05021702 -0.017917803 -0.028631343 0.031495683 0.040218487 -0.08932617
-0.014760242 -0.016746264 -0.01839739 0.06335361 -0.059763465 -0.027124379 0.006125667 0.03898526
-0.008238175 0.025243927 -0.010999201 0.004480252 -0.036264565 -0.056864314 0.04239279 -0.076950036
0.02818176 0.021431876 -0.076613076 -0.044470716 -0.054363772 -0.014789707 0.034021415 -0.05027374
-0.06829671 0.03775419 -0.023364475 0.05459479 0.020782541 -0.030312056 0.025043514 -0.06094237
0.009922618 -0.022970302 0.010950385 0.0293903 0.029471518 -0.009346238 -0.05662042 -0.07094971
-0.05556942 -0.03449176 0.03484515 -0.04529847 0.083002545 -0.07407913 0.025584107 0.047560595
-0.022895267 -0.016310638 0.017007705 -0.024841968 0.0033425447 -0.05111836 0.06700749 0.0016858552
-0.039970163 -0.050396994 -0.042371772 0.03256219 0.047792133 -0.035217576 0.0031197502 -0.008280341

net.4.weight f4 [2, 256]
00000000: 6e27 ad3c a03f e23b a305 63bd 5665 27bb
00000010: ad47 373d 76a6 173b 7a4a c5bc a039 c23a
00000020: 3b5c 513d c7a6 113b f09f da3a fb1b cf3b
00000030: cba7 e6bd 4c47 ffbc f516 303d a61d eb3c
00000040: 7783 6b3b 1dee 1bbc 83c6 01bd 034e b7b9
00000050: abd9 d2b9 cbe6 92bd 0050 05bd 991e b43c
00000060: 7578 3d3c db04 52ba 92c6 8e3a b27a 42bb
00000070: 095b 38bb 2c8d 8fbd 1d58 b4ba c86b 073b
00000080: 49b2 8c3a 5ebf 413c bb5b 42ba f8af 8bba
00000090: 61a8 903b 821b a2bc ac84 ab3b d8d7 69bb
000000a0: d093 8b3c 61fd 4a3d 7bc5 a23a 9808 0d3d
000000b0: 1d7f f3bd 3c13 233b 43a7 fa3c e38e 843d
000000c0: 95f3 a73c 2f37 bd3c d370 35b9 8b4b f23b
000000d0: 8c4a 7c3c 4762 71bc a07a ca3b c861 523b
000000e0: fa9d feba b14c 8239 73c9 623c 056e 7bbb
000000f0: fb36 93bc 6ad9 f7bd 24ac 9d3a bbf6 c7bb
00000100: ea59 09bb 96ed 8e3b 0a70 44bc 147d 5bba
00000110: a1f1 6ebd b37a 3b3a b4cc d6ba dc56 653d
00000120: 1451 40bd 5e19 3cbb eca5 bdbb ab2a 21bd
00000130: 9c9b 55bb 017e 88bc 4eae 51bb 0736 a8bc
00000140: eff2 273a 9262 e4ba 48f2 f2bc 98ca 783d
00000150: f338 46bd 26e5 55bc afd3 8c3c 03dc c23b
00000160: 078a 2b3b d905 f539 0e76 1dba 76da d0bd
00000170: fa02 67bc 3449 e73d 511d 9abb 16ba 7f3c
00000180: 5c93 203a 0774 49bd 3aca d53c a4ce 473c
00000190: 0a48 303c 819c 4a3a e44d b9bb e93c 063d
000001a0: 3202 e3bd 4dd4 1d3d ac1e c6bc 0cdc 0ebb
000001b0: fb07 493d e3eb 89bc 4eb8 633d 99c1 52bb
000001c0: 4da2 adbc d2fb 473a 865a f0bb cfd4 58bc
000001d0: 7bd3 1a3d eb1a 313d 9ef4 be3d ea28 4abc
000001e0: de59 e1ba df4c 503b 66c6 ff3b 87ea 6b3b
000001f0: 34f4 653b c1cd f9bb aa63 8fbb 4a60 1a3b
00000200: 37fb 9c3d cc8c bb3a f23d 1f3b 6b8a daba
00000210: bed2 3d3b faf5 2e3c c615 f63c 7c3a 6b3d
00000220: 378c 7d3b 684c 9d3a 98ed c13d c68c 783d
00000230: 73a9 c7bb 58e0 8dbc bb73 2e3c 56f8 bbbc
00000240: d000 10bd 0c7a fdba a407 253a c326 9cbd
00000250: 2b29 873b fb77 6039 bec2 0abd 0b27 70bc
00000260: a471 febc a98b 6e3d a79b de3c 9e00 69bd
00000270: fdb6 73bb 6454 adba 9ddc 01bd 3e4a 26bd
00000280: 1a06 97bc 7072 70bc d714 303d 2851 8f3b
00000290: da14 afbc 407e 65bb 3188 7f3c 4f8e e6bb
000002a0: edbd 283b 29a1 11bd dd4c dc39 dca9 35ba
000002b0: 4c81 383d ec79 bbb9 b2b7 e73c 2fbd b23d
000002c0: d9d6 dd3d b1af 603d 1198 0dbd 2504 cfbc
000002d0: ea12 2fbd 1685 9e3c 0471 11bb 2c65 83bc
000002e0: 2ef5 723d eec8 6fbd f0d8 c43c 8f7f e93b
000002f0: c6b6 bbbc 3896 923b affe 20bd bd10 4abb
00000300: 4bc8 383d f232 b8bd 85ad d0bd 27ce 0d3e
00000310: 5f09 443d dedb 9ebb 4a4c a43b cfd6 deba
00000320: 6225 813a e6c5 90ba f4fd b63b 7973 dbbb
00000330: 139d 433c 260a a13d a5c1 1c3d de75 a63b
00000340: c7c4 973d f552 f5ba c946 f5ba 385e 99bc
00000350: 1a2e 5c39 784d 3fbd e702 11bb f16d 3dba
00000360: 09f3 d4bc f208 973b b672 7fb9 2214 7fbd
00000370: f6dc dd3c 4b7f d4bd eed3 893b e85b c73a
00000380: f41e 283d 8d5c f2ba 3926 af3b 47a5 e6bc
00000390: 0a93 303d 8f4c 3cbd 58bb 73bb 763e dabb
000003a0: 67c0 863c 38e7 efbc 3fde b73d 1fe7 603a
000003b0: 337d a23d 91ca 1039 70b2 6ebc 0c13 9f3b
000003c0: b7e0 52bd ee67 0f39 a165 ebb9 8acf 303d
000003d0: a1df 27bc 3d83 88bc 9372 0b3d 3a0b f7b9
000003e0: a880 3b3b 8406 4e3b 4e06 b0ba a32e ec3c
000003f0: 4a57 b6bb 5d3d 003d 7411 c2bb e8fb b83c
0.021136966 0.0069045573 -0.055425297 -0.0025542579 0.04474609 0.002313999 -0.024083365 0.0014818199
0.05111335 0.0022224651 0.0016679745 0.006320474 -0.11262473 -0.031161927 0.042990644 0.02870066
0.0035936513 -0.00951722 -0.031683456 -0.00034962603 -0.00040216497 -0.071729265 -0.032546997 0.021987246
0.011564364 -0.0008011588 0.0010892919 -0.0029675183 -0.0028130433 -0.07009348 -0.001375917 0.0020663608
0.0010734285 0.011825411 -0.00074141816 -0.0010657301 0.0044146036 -0.019788507 0.0052343216 -0.0035681631
0.017038256 0.049558047 0.0012418473 0.034432024 -0.11889479 0.002488329 0.030597335 0.06472566
0.020501891 0.023097603 -0.00017303535 0.0073942593 0.015398633 -0.014732904 0.006179169 0.003210174
-0.0019425743 0.00024852672 0.013841975 -0.0038365137 -0.017970553 -0.12102015 0.0012029451 -0.0061024106
-0.0020958134 0.0043618185 -0.011989603 -0.0008372825 -0.058335904 0.00071517675 -0.0016387911 0.05599104
-0.046952322 -0.0028701643 -0.0057876017 -0.039347332 -0.003259397 -0.016661646 -0.0031994763 -0.020533575
0.00064067444 -0.0017424396 -0.029656544 0.060740083 -0.048394155 -0.0130551215 0.017190782 0.0059466376
0.00261748 0.00046734398 -0.0006006666 -0.10197918 -0.014099831 0.11293259 -0.004703202 0.015608331
0.0006125474 -0.049182918 0.026097406 0.012195263 0.010759363 0.00077290094 -0.0056550372 0.032772932
-0.11084403 0.038532544 -0.024184547 -0.0021798639 0.049079876 -0.016836112 0.05559569 -0.003215885
-0.021195555 0.0007628772 -0.00733501 -0.013234331 0.03779934 0.04323856 0.09324001 -0.012338856
-0.001719292 0.00317841 0.0078056334 0.0035997943 0.0035088183 -0.0076234047 -0.0043758946 0.0023555928
0.07665103 0.0014308929 0.0024298397 -0.0016673332 0.0028964723 0.010678763 0.03003968 0.057428822
0.003868831 0.001200092 0.094691455 0.060681127 -0.006093198 -0.01731889 0.0106477095 -0.022945564
-0.035157025 -0.0019338741 0.0006295389 -0.07624581 0.0041247807 0.00021407001 -0.033877127 -0.014657746
-0.031060047 0.05823866 0.02717383 -0.056885354 -0.0037187927 -0.0013224003 -0.031704534 -0.040598147
-0.018435527 -0.0146757215 0.042988624 0.0043736883 -0.021372247 -0.0035017878 0.015596435 -0.0070360075
0.002574797 -0.035554085 0.00042018938 -0.0006929913 0.045045182 -0.00035758258 0.028285835 0.0872749
0.108319946 0.054855052 -0.03456885 -0.025270531 -0.042742647 0.01935057 -0.0022192607 -0.016039453
0.059315853 -0.05854123 0.024029225 0.007125802 -0.022914302 0.004473474 -0.039305385 -0.003083273
0.04511289 -0.08994092 -0.10189346 0.13848172 0.0478605 -0.0048479876 0.005013977 -0.0017001274
0.000985306 -0.0011045306 0.005584473 -0.006697115 0.011939305 0.07863264 0.03827061 0.005079969
0.07410579 -0.001871674 -0.0018713112 -0.018721685 0.00020998009 -0.04670474 -0.0022126974 -0.00072261604
-0.025994794 0.0046092207 -0.00024361428 -0.06227506 0.027082901 -0.10375842 0.004206172 0.0015209885
0.041045144 -0.0018490717 0.0053451327 -0.028154982 0.043108977 -0.04597145 -0.0037190523 -0.006660278
0.016449166 -0.029285058 0.08977937 0.00085793616 0.07934036 0.00013808372 -0.01456891 0.0048545655
-0.051483836 0.0001367626 -0.00044898412 0.043166675 -0.010246188 -0.016664142 0.034044813 -0.00047119876
0.002861062 0.003143699 -0.0013429613 0.028830832 -0.005564605 0.03130852 -0.0059224907 0.022581056

net.4.bias f4 [2]
00000000: 434a 033d 0002 da3b
0.032053243 0.0066530704
