DRL/TrainedModel/cri_weights.pkl (torch, 307511 bytes, 5 tensors)

net.0.weight f4 [256, 39]
0.08857134 -0.06455198 0.13713926 -0.104356825 0.19953795 0.08586475 -0.025011491 0.36442843
0.17629766 -0.07810551 0.06691315 -0.019193938 0.019130778 -0.15240715 -0.12302125 0.106600806
-0.022143597 0.071539134 0.058859814 0.03043305 -0.011270166 0.009272866 0.02595997 -0.1289225
-0.0918552 0.047979034 -0.0035230059 0.108473025 -0.0073541375 -0.08710462 -0.14354329 -0.14012364
-0.180292 -0.08710668 0.10991024 -0.049584642 -0.12450605 -0.050065767 -0.17012009 0.1021969
0.077580184 -0.09662188 0.034526914 0.028699446 -0.011772866 -0.20466869 -0.0023589232 0.14234486
0.02453576 0.0029698845 -0.083982125 -0.14024583 0.13187343 -0.081948906 -0.12603727 -0.05320001
-0.11256454 -0.100731105 -0.065561354 0.061250165 0.102679126 -0.14930217 0.13320962 0.012571646
-0.06390575 -0.08210728 0.049015027 -0.0027432474 -0.1568662 0.09975237 -0.15779641 -0.072737426
-0.08808809 -0.14378436 -0.05542774 0.10972982 -0.12609461 0.0206711 0.1561712 0.048840284
-0.038469102 0.15482642 -0.011625479 -0.15304832 -0.11065531 -0.07755728 -0.12475176 -0.010820351
0.05094749 0.039805222 -0.08330437 -0.07972596 0.07613657 -0.06253433 0.09357141 0.14402072
-0.1223603 -0.07418367 0.04557696 -0.14336814 -0.15279587 0.019955372 0.028987268 -0.14948393
-0.065335326 -0.033400573 0.016840411 0.15563783 0.12185368 0.08026786 -0.0058161933 -0.11240078
-0.1437269 -0.006755305 0.05102539 -0.08949352 0.13358529 0.08897389 -0.14687917 -0.052399803
-0.18138729 -0.044913992 -0.11484619 -0.22546251 -0.082119636 0.097089976 -0.29715255 0.072425276
-0.25870323 -0.32049903 -0.042757317 -0.10117439 -0.25067604 -0.33954674 -0.03818324 -0.15290384
0.2735082 -0.33025107 -0.119517066 -0.26257142 -0.122045465 -0.2301675 -0.22326934 -0.31053427
-0.13230108 -0.20436497 -0.05228903 -0.18874577 -0.31967205 -0.030064477 -0.14207675 -0.24405904
-0.28428328 -0.27472037 -0.10524401 -0.32829258 0.0067555513 -0.09741239 -0.12480694 -0.16426012
0.46846804 -0.24215744 0.011534299 -0.2409392 0.006857401 -0.105567515 0.21270703 -0.0077894907
0.039124366 -0.026056651 -0.1826398 -0.07381996 -0.22486195 -0.14774023 -0.15384848 0.05528401
0.07258391 -0.07027869 -0.13328311 -0.17927064 -0.13925551 -0.025365435 -0.24004044 0.07512862
-0.11781455 -0.18280469 0.05003015 0.04511819 -0.012615414 -0.016138561 -0.11382108 0.06032336
-0.029634807 -0.117694266 -0.10097277 -0.1272196 -0.14992732 0.104864724 0.08690131 -0.037732255
0.023313122 -0.12530738 0.17244719 0.04981095 0.08768254 0.16786085 0.0787206 -0.12547489
0.08248565 -0.13094936 -0.1278608 0.029834474 0.044203207 0.034653433 0.1425111 -0.08011166
0.09442719 -0.12793443 -0.0020003554 0.115237184 0.118813716 -0.10704253 -0.06324011 0.094207585
-0.029687496 -0.17059007 0.04790081 0.064895816 -0.05420276 0.037674993 -0.03488853 0.038822357
-0.0535799 -0.15051429 -0.019705085 0.15525785 0.22319606 -0.1437125 -0.16609295 -0.20270173
-0.3898433 0.02892561 0.056768127 0.0013858437 0.15986194 -0.24834707 -0.1527415 -0.14859596
0.0025181496 -0.26315218 0.00091762893 -0.2197853 -0.058701184 0.0804666 0.0024075664 -0.25793105
00000000: e464 b53d d433 84bd 3c6e 0c3e 08b9 d5bd
00000010: ad53 4c3e dcd9 af3d e6e4 ccbc 5d96 ba3e
00000020: 6087 343e c8f5 9fbd c309 893d 9b3c 9dbc
00000030: 26b8 9c3c 9f10 1cbe 91f2 fbbd 8651 da3d
00000040: 7d66 b5bc 1c83 923d fd16 713d bb4e f93c
00000050: 81a6 38bc 38ed 173c 01aa d43c 4304 04be
00000060: 941e bcbd aa85 443d 3be2 66bb 1b27 de3d
00000070: fafa f0bb e863 b2bd 03fd 12be 927c 0fbe
00000080: 779e 38be fd64 b2bd 9f18 e13d 4419 4bbd
00000090: 07fd febd c311 4dbd f633 2ebe 9c4c d13d
000000a0: 5ce2 9e3d b1e1 c5bd 186c 0d3d 1a1b eb3c
000000b0: fbe2 40bc ab94 51be 2a98 1abb dac2 113e
000000c0: 38ff c83c 65a2 423b d2fe abbd 9a9c 0fbe
000000d0: d409 073e d4d4 a7bd ea0f 01be 41e8 59bd
000000e0: 3d88 e6bd 1c4c cebd 0845 86bd 74e1 7a3d
000000f0: 6f49 d23d abe2 18be 1a68 083e 4ef9 4d3c
00000100: 05e1 82bd dd27 a8bd fbc3 483d 0ec8 33bb
00000110: 88a1 20be f84a cc3d 6295 21be 5cf7 94bd
00000120: 8767 b4bd 353c 13be 3308 63bd 07ba e03d
00000130: f21e 01be 7056 a93c 58eb 1f3e c00c 483d
00000140: c791 1dbd d18a 1e3e cb78 3ebc b3b8 1cbe
00000150: 409f e2bd 5ad6 9ebd da7d ffbd d747 31bc
00000160: 51ae 503d cd0a 233d 7b9b aabd 5d47 a3bd
00000170: 7ded 9b3d 0012 80bd 5ea2 bf3d 2b7a 133e
00000180: 0998 fabd 9ced 97bd e8ae 3a3d 19cf 12be
00000190: 8576 1cbe 7379 a33c b576 ed3c 5112 19be
000001a0: 87ce 85bd 0acf 08bd e7f4 893c 865f 1f3e
000001b0: 6c8e f93d 7a63 a43d c495 bebb 6132 e6bd
000001c0: 252d 13be 9b5b ddbb 0000 513d 6148 b7bd
000001d0: 95ca 083e f137 b63d 7e67 16be 2da1 56bd
000001e0: 97bd 39be bcf7 37bd 7b34 ebbd a5df 66be
000001f0: 572e a8bd 1cd7 c63d 6124 98be b453 943d
00000200: c074 84be 7318 a4be 4c22 2fbd 8534 cfbd
00000210: 9c58 80be 12d9 adbe 0766 1cbd d392 1cbe
00000220: 4409 8c3e ab16 a9be 5dc5 f4bd c36f 86be
00000230: f9f2 f9bd 07b1 6bbe b8a0 64be 59fe 9ebe
00000240: ef79 07be 0d45 51be 062d 56bd 9246 41be
00000250: 0eac a3be c749 f6bc 917c 11be 9dea 79be
00000260: 948d 91be 26a8 8cbe 2c8a d7bd f715 a8be
00000270: ac5d dd3b 2680 c7bd c89a ffbd ce33 28be
00000280: 0bdb ef3e 1ff8 77be 5bfa 3c3c c4b8 76be
00000290: 0db4 e03b c833 d8bd dfcf 593e fc3e ffbb
000002a0: df40 203d c274 d5bc ed05 3bbe eb2e 97bd
000002b0: 3642 66be 3749 17be 758a 1dbe 7c71 623d
000002c0: dfa6 943d 46ee 8fbd 5e7b 08be b992 37be
000002d0: ff98 0ebe 2ccb cfbc 29cd 75be 09dd 993d
000002e0: c148 f1bd 2731 3bbe 6aec 4c3d dacd 383d
000002f0: e2b0 4ebc 0435 84bc 071b e9bd a115 773d
00000300: b2c4 f2bc b109 f1bd d0ca cebd db45 02be
00000310: 8c86 19be 51c3 d63d 50f9 b13d 238d 1abd
00000320: 29fb be3c 9450 00be ff95 303e 9106 4c3d
00000330: e792 b33d b7e3 2b3e 4438 a13d 7d7c 00be
00000340: 3dee a83d 9717 06be f1ed 02be 6d67 f43c
00000350: 6c0e 353d c2f0 0d3d 6eee 113e 9511 a4bd
00000360: 0b63 c13d 3e01 03be 6518 03bb 7901 ec3d
00000370: 9b54 f33d 1d39 dbbd 0884 81bd e8ef c03d
00000380: 3133 f3bc 2aaf 2ebe a433 443d 19e8 843d
00000390: b703 5ebd 1851 1a3d 46e7 0ebd 3104 1f3d
000003a0: 9976 5bbd 6b20 1abe 8f6c a1bc eafb 1e3e
000003b0: 828d 643e 5f29 13be 4514 2abe 0b91 4fbe
000003c0: 8b99 c7be 67f5 ec3c b285 683d 33a5 b53a
000003d0: d9b2 233e b24e 7ebe 4568 1cbe 8a29 18be
000003e0: 8a07 253b e2bb 86be 098d 703a 660f 61be
000003f0: a770 70bd accb a43d 43c8 1d3b 8a0f 84be

net.0.bias f4 [256]
-0.020860763 -0.13297334 0.0012126222 -0.24516761 -0.21173441 -0.053922083 -0.03109204 0.11859553
-0.03394894 -0.11718449 0.14030261 -0.093374275 0.08392459 0.064117745 -0.21657698 -0.06871314
-0.052561387 0.0879696 -0.10467475 -0.001094359 -0.007853613 -0.056969486 0.0903811 -0.14589097
-0.023297507 -0.16001245 0.10483476 0.10696573 0.11265098 0.077065945 0.09491806 -0.1933897
0.044138417 -0.013403773 0.09662232 -0.19539039 -0.032610252 0.083867826 -0.19117093 0.05154905
0.008583546 -0.22259195 0.12922785 -0.010947409 0.035178978 0.030776642 -0.29458255 0.113520995
-0.10098929 0.054340214 -0.087314755 -0.019225119 0.057586133 0.22548266 -0.14228325 0.043780863
0.093663715 0.18546027 -0.012896146 -0.06362542 -0.0075129364 0.05047738 0.13285291 0.011003243
-0.113820195 -0.1872597 0.09047398 0.08642193 0.01552578 0.1585686 0.08928399 -0.016888803
-0.06753374 -0.08405546 -0.09931729 -0.014910899 0.15040691 -0.046840467 -0.1484511 0.15442413
-0.02774286 0.011890769 -0.04348636 -0.08890157 -0.091932975 0.046823774 -0.007979166 -0.05805895
-0.048431072 0.051267102 -0.087637596 -0.024078863 -0.25132167 -0.07319763 0.021847837 -0.010197654
0.16685191 -0.09461832 0.17620885 -0.14896685 -0.25765792 0.14848807 0.088309824 0.06961936
-0.12887055 0.07456818 -0.09717916 0.010878676 -0.20436424 -0.1559105 0.17449605 -0.2543085
-0.0031626928 -0.17392932 0.0049050692 -0.12800704 0.14739153 0.14398782 0.03191142 -0.078997426
-0.13336371 0.055624746 0.04192484 -0.093589306 0.0013288615 -0.23820478 0.0961379 -0.11148744
0.02087076 0.054116454 0.020686751 -0.083853886 0.011696527 0.04541047 -0.12912652 0.053976823
-0.15646964 -0.20083569 0.023206372 -0.054486748 -0.09169977 0.12523805 -0.075958006 0.074756905
-0.108094156 0.12844235 0.06613051 -0.19933285 0.06865425 -0.020466346 -0.22942238 0.12431286
-0.15382941 0.0600819 -0.22007765 -0.01877933 -0.05381697 -0.0674185 0.032252084 -0.072711885
-0.25823456 -0.06387803 -0.016264677 -0.10360696 0.001996938 0.015367406 -0.07804463 -0.15305716
-0.25610077 0.03184243 0.08793273 -0.09303869 -0.036680385 -0.13714144 0.036617 -0.15736847
-0.056684475 -0.026543668 0.026605772 -0.021558655 0.1793974 -0.13239288 -0.1087402 -0.010220664
-0.02848102 0.11848448 -0.025681859 -0.0012052663 -0.32585028 -0.0614326 -0.15707582 0.13697325
-0.19897833 0.025572702 -0.14380953 0.08337815 0.056193735 0.051658634 0.09760135 0.1880545
0.0007719738 0.030877039 -0.028958058 -0.15690303 -0.04572744 0.0067679863 0.06476277 0.03578264
-0.20482309 -0.10888996 -0.13788556 -0.113771155 -0.06443525 0.13546535 -0.033179 0.049311247
-0.17118216 -0.0018258123 0.0031965973 0.12751237 0.121759266 -0.14119044 -0.2309331 -0.04679508
0.033334404 0.074583784 -0.112832904 0.039203454 0.026224645 -0.03548912 0.041183323 -0.21725175
0.10353862 -0.1568238 0.04227268 -0.03904792 -0.10099484 0.083390065 0.15598956 -0.030324891
0.13691011 -0.2763433 0.16212393 0.11364928 0.08411128 0.08223242 -0.044758882 -0.03160958
0.01892851 0.07820017 0.011381579 0.20520273 0.17008692 0.051225074 -0.11257615 -0.12202494
00000000: 31e4 aabc 2a2a 08be d9f0 9e3a 380d 7bbe
00000010: e8d0 58be 67dd 5cbd bcb4 febc 37e2 f23d
00000020: 0b0e 0bbd 6cfe efbd 7dab 0f3e 033b bfbd
00000030: a8e0 ab3d 2a50 833d 5bc6 5dbe 7ab9 8cbd
00000040: 9c4a 57bd 6829 b43d b75f d6bd 9870 8fba
00000050: 71ac 00bc d658 69bd ba19 b93d 7164 15be
00000060: 6ada bebc 4eda 23be 9bb3 d63d d910 db3d
00000070: 8fb5 e63d c0d4 9d3d 6664 c23d f307 46be
00000080: 7cca 343d 809b 5bbc ece1 c53d 6b14 48be
00000090: 5492 05bd e5c2 ab3d 50c2 43be 1925 533d
000000a0: 00a2 0c3c 25ef 63be 4e54 043e c35c 33bc
000000b0: d517 103d 4c1f fc3c 86d3 96be b27d e83d
000000c0: 79d3 cebd d893 5e3d 14d2 b2bd ff7d 9dbc
000000d0: 70df 6b3d ede4 663e b3b2 11be 9053 333d
000000e0: c3d2 bf3d 4ce9 3d3e 5b4a 53bc 0b4e 82bd
000000f0: 142f f6bb 5fc1 4e3d 980a 083e f246 343c
00000100: 901a e9bd 02c1 3fbe 6c4a b93d fbfd b03d
00000110: d75f 7e3c cf5f 223e 86da b63d 635a 8abc
00000120: 214f 8abd 4525 acbd dd66 cbbd d84c 74bc
00000130: 4504 1a3e cadb 3fbd 9103 18be 5c21 1e3e
00000140: ff44 e3bc 80d1 423c c11e 32bd 0712 b6bd
00000150: 5b47 bcbd 49ca 3f3d 0cbb 02bc 39cf 6dbd
00000160: a95f 46bd 74fd 513d 577b b3bd 0941 c5bc
00000170: 3cad 80be a4e8 95bd 3cfa b23c 1014 27bc
00000180: 3adb 2a3e 40c7 c1bd 1870 343e c48a 18be
00000190: bdeb 83be 420d 183e c8db b43d 9894 8e3d
000001a0: a4f6 03be 34b7 983d de05 c7bd 793c 323c
000001b0: dc44 51be 01a7 1fbe 18af 323e b934 82be
000001c0: 2e45 4fbb 871a 32be b4ba a03b 4714 03be
000001d0: ceed 163e 8b71 133e 8db5 023d 67c9 a1bd
000001e0: 7f90 08be c6d6 633d 62b9 2b3d c0ab bfbd
000001f0: 312d ae3a f4eb 73be f3e3 c43d 8753 e4bd
00000200: 28f9 aa3c 37a9 5d3d 4377 a93c 96bb abbd
00000210: caa2 3f3c 5400 3a3d be39 04be cd16 5d3d
00000220: 9439 20be dfa7 4dbe 4a1b be3c 7f2d 5fbd
00000230: 17cd bbbd 673e 003e df8f 9bbd 261a 993d
00000240: 7860 ddbd 6486 033e 6f6f 873d e91d 4cbe
00000250: 999a 8c3d 0aa9 a7bc b3ed 6abe be97 fe3d
00000260: 7585 1dbe 7018 763d 095c 61be 1cd7 99bc
00000270: 2f6f 5cbd b612 8abd c31a 043d f8e9 94bd
00000280: 5237 84be 7cd2 82bd 803d 85bc e32f d4bd
00000290: 0fdf 023b 93c7 7b3c ddd5 9fbd 04bb 1cbe
000002a0: a41f 83be 356d 023d 1316 b43d 128b bebd
000002b0: 2c3e 16bd ce6e 0cbe b5fb 153d 3325 21be
000002c0: fb2d 68bd 1b72 d9bc 59f4 d93c c79b b0bc
000002d0: f4b3 373e 0092 07be 2fb3 debd 9274 27bc
000002e0: 0751 e9bc fea7 f23d c362 d2bc 07fa 9dba
000002f0: d9d5 a6be c0a0 7bbd 7cd8 20be b742 0c3e
00000300: fac0 4bbe d87d d13c ce42 13be 2ac2 aa3d
00000310: 672b 663d 0198 533d 37e3 c73d 5c91 403e
00000320: 495e 4a3a d8f1 fc3c 7339 edbc 30ab 20be
00000330: b24c 3bbd fcc5 dd3b 58a2 843d d190 123d
00000340: 25bd 51be b301 dfbd df31 0dbe da00 e9bd
00000350: a1f6 83bd 6eb7 0a3e b4e6 07bd 97fa 493d
00000360: 604a 2fbe 1850 efba 017e 513b 9a92 023e
00000370: ec5c f93d 3a94 10be ba79 6cbe 33ac 3fbd
00000380: a889 083d 62bf 983d f014 e7bd cd93 203d
00000390: 11d5 d63c 0a5d 11bd d8af 283d 3e77 5ebe
000003a0: 0e0c d43d 6b96 20be 1e26 2d3d b6f0 1fbd
000003b0: 62d6 cebd 69c8 aa3d babb 1f3e e86b f8bc
000003c0: 2a32 0c3e de7c 8dbe d103 263e f4c0 e83d
000003d0: 8942 ac3d 7969 a83d 1755 37bd 0c79 01bd
000003e0: f60f 9b3c 6927 a03d cd79 3a3c aa20 523e
000003f0: 442b 2e3e 62d1 513d 538e e6bd 36e8 f9bd

net.2.weight f4 [256, 256]
0.045252956 0.033736926 0.054544292 -0.014981352 0.02087927 0.021455446 -0.033712476 -0.017940806
-0.019958118 0.05673138 -0.059252076 0.037947845 0.029493041 -0.06326427 -0.027455011 0.024672197
0.04847516 0.017051 -0.051272124 -0.045862023 -0.060122635 -0.031024555 0.05478859 0.042259924
0.050961185 0.016392544 -0.022718735 -0.02855163 0.032134067 -0.035318043 -0.00060279877 0.053904682
-0.025440896 0.026393741 -0.0035001412 0.01160769 -0.060853362 0.03629832 0.05057384 -0.051693305
-0.0078052953 -0.019800492 0.018892633 0.007119573 -0.03834921 0.035592027 -0.0040396005 0.01689244
-0.06046333 -0.047205336 -0.012815293 -0.006147884 0.015698694 0.051085398 -0.036143072 0.061896898
0.04221189 -0.04401767 -0.02892173 -0.022281064 -0.014689566 0.03180194 -0.015302815 -0.056359965
0.036378 0.012277717 -0.028354406 0.007021755 -0.031487733 -0.041325822 0.01534096 -0.044751763
-0.015922837 -0.04701634 -0.0070214947 0.045029942 -0.048656236 0.019358918 -0.061322067 -0.054381378
0.049381368 0.05749145 -0.0039295806 0.0098354295 -0.0425651 0.022375807 0.012037996 -0.02024978
0.04495227 -0.009455092 0.04581964 0.054341897 -0.038389094 -0.0638463 0.028573574 0.017939717
0.020616092 -0.037816793 -0.04149698 0.0061262846 -0.024634473 -0.044833332 0.033335365 -0.042195834
-0.038971983 0.016607828 0.024295924 -0.052866742 0.030057598 -0.050100762 -0.04569764 -0.053566918
-0.0071482137 -0.0029042766 0.039991226 -0.048748456 -0.06280976 -0.062000025 0.021218305 -0.06459786
0.045280837 -0.011651218 0.015392137 -0.056462303 0.008825004 -0.013446778 -0.021108208 -0.014510032
0.03752511 -0.015054777 0.028467366 -0.019161195 0.060579292 -0.050036002 0.04309354 0.04471785
0.010632473 -0.033530015 -0.04179195 -0.024921589 -0.053628504 -0.015677132 -0.04921749 0.004589878
-0.045534126 -0.050314613 -0.017731808 -0.017338952 -0.036462292 -0.053122498 0.0018111914 0.052853987
0.03279981 0.061310858 -0.058477454 -0.044400748 -0.03792169 0.024660878 -0.032356776 -0.042773806
-0.046939936 0.014763966 0.06008225 0.04344128 0.008413943 -0.0521356 -0.013648093 -0.0013547316
0.017958662 -0.059996843 -0.03762711 0.032167338 -0.02174821 -0.02731341 0.057898708 0.034263074
-0.0038399668 -0.03742217 -0.04215829 0.026023373 -0.06138029 0.04044207 0.034902528 -0.0057578906
-0.011648194 -0.06532209 -0.017253496 0.052849643 -0.056414522 -0.060605314 -0.06046637 0.015935542
0.0002529025 0.03359838 0.0026917735 -0.0050480426 0.012763888 0.058973808 -0.00022518776 0.05434531
0.02243819 -0.014535722 0.019787503 -0.006849751 0.015099853 -0.012044927 -0.030347457 0.0021752492
0.018387944 -0.023935333 -0.045795023 -0.018779263 -0.05719746 0.00037902594 -0.012117349 -0.036810286
0.059145965 -0.060273465 -0.036025934 -0.0131924 0.054156072 0.0045358315 -0.05232118 -0.023526326
-0.0015714914 -0.022962421 -0.059051 0.0042180815 -0.024431292 0.025233813 0.030278929 -0.04933879
-0.05657909 -0.042305842 0.036004752 0.025412453 -0.045599937 -0.03472889 0.03451114 0.044979986
-0.03162957 -0.036784083 -0.0043986198 0.052919403 0.017545518 -0.004868529 0.019405544 0.01287231
0.04063236 0.04741491 0.04226432 0.045543306 -0.059633084 0.047393076 0.033323877 0.06099154
00000000: 2a5b 393d bb2f 0a3d d669 5f3d 5874 75bc
00000010: 010b ab3c 55c3 af3c 1816 0abd 99f8 92bc
00000020: 357f a3bc 2a5f 683d 4eb2 72bd 336f 1b3d
00000030: 649b f13c b390 81bd 55e9 e0bc 591d ca3c
00000040: e48d 463d 8aae 8b3c b802 52bd d1d9 3bbd
00000050: 2743 76bd 3527 febc 006a 603d be18 2d3d
00000060: adbc 503d a849 863c a41c babc 1ce5 e9bc
00000070: 039f 033d a7a9 10bd 2405 1eba 28cb 5c3d
00000080: 6d69 d0bc b037 d83c a062 65bb 2e2e 3e3c
00000090: 6041 79bd 8cad 143d 8426 4f3d 5cbc 53bd
000000a0: 90c3 ffbb a434 a2bc b9c4 9a3c 4f4b e93b
000000b0: 1014 1dbd f2c8 113d a05e 84bb 0462 8a3c
000000c0: 66a8 77bd 625a 41bd 3cf7 51bc 3074 c9bb
000000d0: 8c9a 803c ec3e 513d c20a 14bd 9a87 7d3d
000000e0: 60e6 2c3d df4b 34bd 44ed ecbc c786 b6bc
000000f0: 81ac 70bc c042 023d a8b8 7abc b5d9 66bd
00000100: 1901 153d 7a28 493c 8047 e8bc c016 e63b
00000110: 48f9 00bd 4445 29bd a658 7b3c a04d 37bd
00000120: 9c70 82bc 3594 40bd 9114 e6bb 5171 383d
00000130: c34b 47bd 9896 9e3c d92c 7bbd 02bf 5ebd
00000140: 1e44 4a3d 287c 6b3d b6c3 80bb c824 213c
00000150: be58 2ebd 784d b73c 043b 453c dee2 a5bc
00000160: df1f 383d 88e9 1abc 60ad 3b3d 9c95 5e3d
00000170: e23d 1dbd d9c1 82bd 2113 ea3c 50f6 923c
00000180: 14e3 a83c c8e5 1abd bdf8 29bd 00bf c83b
00000190: 3cce c9bc 28a3 37bd aa8a 083d 8ad5 2cbd
000001a0: 16a1 1fbd 240d 883c 3f08 c73c cc8a 58bd
000001b0: 5a3b f63c 7536 4dbd 732d 3bbd fc68 5bbd
000001c0: 903b eabb ad55 3ebb d7cd 233d 76ac 47bd
000001d0: 67a2 80bd bdf3 7dbd 03d2 ad3c e24b 84bd
000001e0: 6678 393d c0e4 3ebc 4d2f 7c3c 0445 67bd
000001f0: c096 103c e04f 5cbc 1feb acbc 7cbb 6dbc
00000200: eeb3 193d 50a8 76bc 6534 e93c f0f7 9cbc
00000210: fe21 783d 8df2 4cbd da82 303d 102a 373d
00000220: d333 2e3c c556 09bd 092e 2bbd 5c28 ccbc
00000230: 90a9 5bbd 546d 80bc 4798 49bd b066 963b
00000240: fe81 3abd b216 4ebd 4c42 91bc 6b0a 8ebc
00000250: 7c59 15bd fa96 59bd 8065 ed3a 6c7d 583d
00000260: 1859 063d 1821 7b3d 0e86 6fbd 8fdd 35bd
00000270: c653 1bbd 9c05 ca3c 8a88 04bd 9633 2fbd
00000280: 1744 40bd 90e4 713c ce18 763d 7cef 313d
00000290: a3da 093c 248c 55bd 409c 5fbc 4091 b1ba
000002a0: 0b1e 933c 40bf 75bd e21e 1abd e6c1 033d
000002b0: 4d29 b2bc 5fc0 dfbc 3227 6d3d 7057 0c3d
000002c0: f4a7 7bbb fd47 19bd 2cae 2cbd f82e d53c
000002d0: e669 7bbd 96a6 253d f4f5 0e3d b0ac bcbb
000002e0: 11d8 3ebc 97c7 85bd 3457 8dbc de78 583d
000002f0: ea12 67bd 473d 78bd 96ab 77bd 418b 823c
00000300: 0098 8439 749e 093d 7768 303b 0d6a a5bb
00000310: a01f 513c 858e 713d 6120 6cb9 3099 5e3d
00000320: 4cd0 b73c 3d27 6ebc 6719 a23c e073 e0bb
00000330: 6065 773c 1658 45bc 3b9b f8bc a08e 0e3b
00000340: 50a2 963c 0814 c4bc 9093 3bbd f8d6 99bc
00000350: e247 6abd 00b8 c639 d887 46bc 62c6 16bd
00000360: 0a43 723d 4fe1 76bd ee8f 13bd f024 58bc
00000370: c2d2 5d3d 50a1 943b bc4e 56bd 48ba c0bc
00000380: 80fa cdba b01b bcbc 76df 71bd d537 8a3b
00000390: 2224 c8bc 24b7 ce3c 840b f83c 7917 4abd
000003a0: 7abf 67bd e448 2dbd b879 133d c72d d03c
000003b0: 00c7 3abd e13f 0ebd 8e5b 0d3d ef3c 383d
000003c0: 028e 01bd e8aa 16bd 4c22 90bb 04c2 583d
000003d0: 9ebb 8f3c 2e88 9fbb 60f8 9e3c 62e6 523c
000003e0: 1e6e 263d 2336 423d 5a1d 2d3d 9e8b 3a3d
000003f0: d241 74bd 3e1f 423d 9e7e 083d 44d2 793d

net.2.bias f4 [256]
0.019659176 -0.02485288 -0.010339984 -0.06778108 0.005906859 0.031766817 -0.038335998 0.0041629635
-0.045790397 0.031741925 -0.013210226 -0.018170068 0.037504237 -0.08095583 -0.059623368 0.107591495
0.026117142 -0.046391785 -0.07317604 -0.059048284 0.0029095744 0.0126356445 -0.037125867 0.010725861
-0.019719321 -0.009515585 0.08606258 0.02856952 0.1094768 0.034227755 0.047185954 0.011218535
0.027295696 -0.021055786 -0.06819815 -0.027816458 0.036113426 -0.01757413 0.0086197425 -0.07934014
0.054468714 -0.018574808 -0.067348704 -0.042384245 0.014980793 0.004425793 0.12476191 -0.006916409
-0.018421747 -0.05897757 0.10923913 -0.03745141 0.056487747 0.018503545 -0.0942259 0.037518237
-0.078257725 0.01300259 0.01576487 -0.0010891742 -0.003067471 0.012903259 0.01771342 -0.03489568
-0.015337945 0.032422613 0.003544715 -0.022017162 0.031570412 0.043538544 0.015988396 0.0056553036
-0.037668973 -0.07765466 0.08940478 0.034523796 -0.009830877 0.010824307 -0.017292995 0.0039757146
0.023596864 -0.017363077 0.02497637 0.0013789992 0.09521059 0.040461585 -0.06262753 0.039218012
-0.04389733 0.019848637 0.06769115 0.030067215 -0.046467386 0.048049778 0.09564594 0.053587258
-0.019903572 0.040508177 -0.06728875 0.053629983 0.0036827475 -0.010971979 0.023844223 0.012118407
0.036141325 -0.02011159 -0.01155668 -0.0035252613 0.0038324439 -0.039264843 0.06410513 -0.062353615
-0.07089876 -0.028423619 0.0818275 -0.05501935 0.0053269113 0.0012386894 0.066667385 -0.010677403
0.05721771 0.058494993 -0.042212926 -0.013075856 -0.05918148 -0.027166618 -0.023725674 -0.0027711615
-0.03985494 -0.11292604 0.06557846 -0.032917317 0.004615631 0.004492106 0.050720695 0.04208871
0.09966244 0.036798812 0.025268286 -0.043335397 -0.0376989 -0.034271903 -0.012595651 0.028344138
0.020212835 0.051393993 0.063750364 0.009116746 -0.0925091 0.033556215 -0.00806184 0.026476374
-0.013605694 -0.047278993 0.0754816 0.03544307 -0.060761042 -0.072058976 -0.06408183 0.028973209
0.017166987 0.042749982 -0.039948504 0.03788132 0.034618806 -0.030307867 -0.05817004 -0.00972094
0.015457187 -0.0055447714 -0.05621001 0.10630651 0.02539579 -0.053321145 -0.046257876 0.022685971
0.014016369 0.0031164864 -0.007708796 -0.055380765 -0.005556369 -0.037651774 -0.0015649721 -0.0032235403
-0.013555596 0.034789212 0.022165598 0.028899016 0.10553366 -0.013264961 -0.008361994 0.058268346
0.03090934 -0.021706313 -0.05609442 -0.0066043884 -0.007824763 -0.054316126 -0.010762476 -0.00966143
-0.035164375 -0.025785757 0.00012264765 -0.01757793 0.02527203 0.00030201205 -0.08736775 0.0052207857
0.0039994777 -0.0032392517 0.04664456 -0.034925494 0.031564225 -0.014058387 -0.06920772 -0.0553947
0.019001631 0.041057058 -0.084766805 0.020505484 -0.018426187 -0.020580538 -0.03860921 0.041011572
-0.016833406 0.057431754 -0.11938626 -0.058797672 -0.07590194 -0.07934043 0.013938551 -0.0038801308
0.03676186 0.021225188 -0.02879528 0.015289764 0.012761236 -0.0020472074 -0.072074 -0.0016279763
0.03641428 0.03207413 -0.06346064 0.023723679 -0.07458804 0.011601181 0.030231267 0.058589634
0.038335778 0.03151009 -0.04773836 0.0001486604 0.00063616986 -0.039832618 -0.015327976 0.019911805
00000000: 480c a13c 4498 cbbc 0969 29bc cfd0 8abd
00000010: 538e c13b ec1d 023d 3506 1dbd 7869 883b
00000020: b68e 3bbd d203 023d b46f 58bc 65d9 94bc
00000030: 0b9e 193d 2ccc a5bd a237 74bd ee58 dc3d
00000040: 9ef3 d53c 5005 3ebd 52dd 95bd 9ddc 71bd
00000050: 8fae 3e3b bc05 4f3c 4b11 18bd 86bb 2f3c
00000060: 6a8a a1bc 42e7 1bbc 9441 b03d a00a ea3c
00000070: 5f35 e03d 6732 0c3d 0f46 413d f2cd 373c
00000080: 399b df3c 2f7d acbc 79ab 8bbd 57df e3bc
00000090: aceb 133d 9ff7 8fbc d239 0d3c 157d a2bd
000000a0: 961a 5f3d 322a 98bc 1eee 89bd 1a9b 2dbd
000000b0: 0072 753c 3e06 913b 2c83 ff3d 0ba3 e2bb
000000c0: 34e9 96bc 7792 71bd c4b8 df3d a666 19bd
000000d0: b25f 673d bf94 973c 82f9 c0bd b9ac 193d
000000e0: 9645 a0bd d108 553c 5425 813c 9fc2 8eba
000000f0: a007 49bb 3168 533c bc1b 913c c6ee 0ebd
00000100: 014c 7bbc 93cd 043d 734e 683b 565d b4bc
00000110: fa4f 013d 7955 323d 19fa 823c 2050 b93b
00000120: c84a 1abd 6809 9fbd da19 b73d d368 0d3d
00000130: b011 21bc 6f58 313c 0aaa 8dbc b646 823b
00000140: 364e c13c 033d 8ebc 3f9b cc3c 89bf b43a
00000150: c5fd c23d 0cbb 253d dd42 80bd 11a3 203d
00000160: b0cd 33bd 9c99 a23c a8a1 8a3d 854f f63c
00000170: 9654 3ebd d8cf 443d 05e2 c33d 507e 5b3d
00000180: d10c a3bc e7eb 253d afce 89bd 1dab 5b3d
00000190: 405a 713b d1c3 33bc f654 c33c 488c 463c
000001a0: ed08 143d 10c1 a4bc 3b58 3dbc 1208 67bb
000001b0: bd29 7b3b 2cd4 20bd 8d49 833d 8166 7fbd
000001c0: 5e33 91bd a6d8 e8bc 2d95 a73d f85b 61bd
000001d0: 5f8d ae3b 855b a23a e988 883d 46f0 2ebc
000001e0: 1e5d 6a3d 7298 6f3d 76e7 2cbd 1d3c 56bc
000001f0: 4868 72bd 878c debc 585c c2bc 609c 35bb
00000200: ef3e 23bd c545 e7bd 004e 863d 4fd4 06bd
00000210: b83e 973b 8432 933b 81c0 4f3d 3665 2c3d
00000220: d21b cc3d 5aba 163d 70ff ce3c 7580 31bd
00000230: 296a 1abd b260 0cbd fd5d 4ebc f731 e83c
00000240: 6395 a53c 8282 523d 8d8f 823d 675e 153c
00000250: 6975 bdbd 3e72 093d cf15 04bc fbe4 d83c
00000260: 6bea 5ebc 9ea7 41bd 1996 9a3d c12c 113d
00000270: 92e0 78bd a893 93bd 563d 83bd 3959 ed3c
00000280: c8a1 8c3c 9b1a 2f3d 0ba1 23bd 7129 1b3d
00000290: 73cc 0d3d 3448 f8bc b543 6ebd 9444 1fbc
000002a0: 2440 7d3c eab0 b5bb 783c 66bd 3ab7 d93d
000002b0: d50a d03c 4667 5abd e678 3dbd eed7 b93c
000002c0: eaa4 653c f73d 4c3b 119a fcbb f1d6 62bd
000002d0: 3412 b6bb bf38 1abd c01f cdba 0842 53bb
000002e0: 4a18 5ebc 227f 0e3d a194 b53c a1bd ec3c
000002f0: 0822 d83d 4755 59bc bf00 09bc caaa 6e3d
00000300: 9635 fd3c 70d1 b1bc 43c3 65bd a069 d8bb
00000310: 6f33 00bc 967a 5ebd 1955 30bc f94a 1ebc
00000320: 8508 10bd a73c d3bc fa9a 0039 97ff 8fbc
00000330: 4a07 cf3c 5f57 9e39 dded b2bd 2013 ab3b
00000340: 0d0e 833b a049 54bb 5e0e 3f3d 090e 0fbd
00000350: 7d49 013d 2655 66bc c7bc 8dbd 8ee5 62bd
00000360: 4fa9 9b3c 722b 283d 389a adbd 1efb a73c
00000370: 84f2 96bc 8498 a8bc b124 1ebd c0fb 273d
00000380: 36e6 89bc 8f3d 6b3d c980 f4bd d4d5 70bd
00000390: 7a72 9bbd 3c7d a2bd 855e 643c cb49 7ebb
000003a0: 9b93 163d 72e0 ad3c 14e4 ebbc eb81 7a3c
000003b0: 8114 513c 712a 06bb 899b 93bd d261 d5ba
000003c0: 2427 153d 2a60 033d a7f7 81bd 2958 c23c
000003d0: 9dc1 98bd e112 3e3c 90a7 f73c affb 6f3d
000003e0: fa05 1d3d b910 013d 4c89 43bd b9e1 1b39
000003f0: a3c4 263a 8727 23bd 3122 7bbc 151e a33c

net.4.weight f4 [1, 256]
-0.13221733 -0.18504348 -0.18492903 -0.17230749 -0.14973836 0.09744593 -0.029508831 0.14465982
-0.209785 0.0050722137 -0.25058198 -0.018770121 0.011040317 0.3055209 0.6380279 0.33009586
-0.18434042 -0.20833196 -0.22130159 -0.21603866 -0.2224155 0.1210361 -0.0019146277 0.041570354
0.27858636 -0.0010789026 0.37028793 -0.21606877 0.29419273 0.039452396 0.031177184 0.43581972
0.1179829 0.024405649 -0.23741144 -0.19355871 -0.19506954 -0.28305036 0.2677067 0.29333815
0.28608716 0.45372227 -0.20102797 -0.15675144 0.04379029 0.1924443 0.2484666 -0.15443572
0.0039314525 -0.19161966 0.27592382 -0.2048531 0.0022494332 -0.20712297 -0.6891916 -0.21611646
-0.23575076 -0.19736207 -0.01543417 -0.2597311 0.022935703 -0.0056961975 0.2981111 0.032323644
-0.18414487 0.28621453 0.010042439 0.04914581 0.046618477 0.27072048 -0.18001908 -0.18646967
-0.2090531 -0.18677706 0.2995229 -0.19482793 -0.023500046 0.24024762 -0.15341783 0.29754674
-0.22957633 0.079623066 -0.20735054 0.035397127 0.27565923 0.25031218 -0.23215593 0.46334073
0.21177486 -0.15686059 0.18596227 0.3936481 0.03455064 0.03965421 0.1952021 -0.21222545
-0.15607391 -0.22672206 -0.18415754 0.058208305 -0.18303064 0.030515762 0.04545696 -0.07931811
0.3263088 -0.029884059 -0.22797029 0.06820385 0.020128405 -0.31722945 0.29711375 -0.03600327
-0.21191944 0.320771 0.19755603 0.13027415 -0.25501853 0.41996604 0.23451278 -0.18528762
0.054909904 -0.08501365 0.045848455 0.29421142 0.32588026 -0.14863169 -0.18494982 0.06310518
0.34885952 0.76715267 0.23499128 -0.19224305 0.28043342 -0.18178272 0.27235484 0.050080083
0.29678228 0.38401616 -0.2627306 -0.18854211 -0.17091228 -0.21137866 -0.75847185 -0.16973335
0.33330414 0.23022942 0.30687004 -0.13013074 0.5546315 -0.20555778 -0.27003157 -0.22874644
-0.19344652 -0.21710725 0.24289751 -0.787695 0.35567388 -0.21323566 1.2679434 0.3248748
-0.18254162 0.26528764 -0.21970801 -0.007492563 -0.19199361 0.0913809 0.08009512 -0.26268804
0.06659738 -0.18160935 0.3795791 0.2192176 -0.24559662 -0.18315867 -0.17016895 0.3558991
-0.29675025 0.18672673 0.0729523 0.055329524 -0.25872955 -0.2068688 0.06280958 0.05389478
-0.2175735 0.009847724 0.048735138 -0.1990487 0.26815867 0.26273242 -0.7504228 0.5987872
-0.18111254 -0.18202749 0.007156894 0.004014043 0.045751333 0.0021642966 -0.14068209 0.03705399
-0.17994179 -0.25641677 -0.23671812 0.0705126 -0.27084556 -0.27279875 0.32675394 -0.008103269
-0.26625267 0.029171342 0.0025198837 -0.18118505 -0.1471727 -0.23130825 -0.16349705 -0.18997909
0.35729763 0.13962053 -0.18973461 0.036592204 -0.19915292 0.7193609 -0.15030958 0.010456173
-0.23272291 0.2145331 0.40590572 0.046377193 -0.906755 -0.19736807 -0.18062772 0.10537189
0.20370065 0.28399134 0.014114686 -0.22461787 -0.17280374 -0.2795616 -0.26890936 0.23957364
0.23903558 0.022082087 -0.2110936 -0.17304072 -0.23383957 -0.17120665 -0.24938324 0.27417827
-0.25200707 0.0053245747 -0.19891849 -0.16406229 -0.21219218 0.06413906 0.32078776 -0.2428273
00000000: fb63 07be 0a7c 3dbe 095e 3dbe 6071 30be
00000010: 0355 19be bb91 c73d 81bc f1bc b421 143e
00000020: e1d1 56be d034 a63b 484c 80be ccc3 99bc
00000030: 72e2 343c 3c6d 9c3e cc55 233f 5302 a93e
00000040: bcc3 3cbe f954 55be e29c 62be 3d39 5dbe
00000050: e4c0 63be c6e1 f73d 3ff4 faba ad45 2a3d
00000060: dfa2 8e3e f769 8dba 6196 bd3e 2241 5dbe
00000070: 6ea0 963e d698 213d 4b67 ff3c c323 df3e
00000080: 05a1 f13d 5bee c73c fc1b 73be 4134 46be
00000090: 4fc0 47be faeb 90be da10 893e 6b30 963e
000000a0: 047a 923e 494e e83e 47da 4dbe 7383 20be
000000b0: 725d 333d 1e10 453e 076e 7e3e 6624 1ebe
000000c0: 6ad3 803b f237 44be e345 8d3e 03c5 51be
000000d0: 3a6b 133b 0b18 54be dc6e 30bf a24d 5dbe
000000e0: a668 71be 4819 4abe 9adf 7cbc 7afb 84be
000000f0: a8e3 bb3c 2ba7 babb 05a2 983e cc65 043d
00000100: 7990 3cbe b68a 923e 0b89 243c 1e4d 493d
00000110: 04f3 3e3d e09b 8a3e ec56 38be e8f1 3ebe
00000120: 0412 56be 7c42 3fbe 115b 993e f980 47be
00000130: 2b83 c0bc 7903 763e 9019 1dbe 0c58 983e
00000140: 0f16 6bbe 6b11 a33d b353 54be 94fc 103d
00000150: 3523 8d3e eb28 803e 49ba 6dbe ff3a ed3e
00000160: 82db 583e 10a0 20be e56c 3e3e 3e8c c93e
00000170: f984 0d3d 746c 223d 0fe3 473e a151 59be
00000180: d7d1 1fbe d429 68be cb93 3cbe d56b 6e3d
00000190: 626c 3bbe 31fc f93c 1431 3a3d 8971 a2bd
000001a0: f211 a73e 6acf f4bc 0b71 69be 76ae 8b3d
000001b0: 53e4 a43c e66b a2be 4b1f 983e 2a78 13bd
000001c0: 6901 59be 193c a43e 214c 4a3e 9666 053e
000001d0: ca91 82be ca05 d73e 1e24 703e 0abc 3dbe
000001e0: 35e9 603d a31b aebd 97cb 3b3d e1a2 963e
000001f0: c7d9 a63e e832 18be 7c63 3dbe 4a3d 813d
00000200: b79d b23e 1e64 443f 8ea1 703e 5ddb 44be
00000210: f894 8f3e 4025 3abe 1872 8b3e c620 4d3d
00000220: d9f3 973e c49d c43e a084 86be 2f11 41be
00000230: a103 2fbe a673 58be 362b 42bf 94ce 2dbe
00000240: d7a6 aa3e 43c1 6b3e 121e 9d3e fe40 05be
00000250: 54fc 0d3f bd7d 52be 9441 8abe 823c 6abe
00000260: d816 46be 5d51 5ebe 20ba 783e 61a6 49bf
00000270: e31a b63e 735a 5abe f84b a23f fd55 a63e
00000280: 31ec 3abe c8d3 873e 23fb 60be 2d84 f5bb
00000290: f999 44be e925 bb3d e908 a43d 0c7f 86be
000002a0: 3564 883d cdf7 39be 3158 c23e 947a 603e
000002b0: ae7d 7bbe f28d 3bbe c540 2ebe 6838 b63e
000002c0: a6ef 97be 4b35 3f3e 0468 953d 36a1 623d
000002d0: 3378 84be 6ad5 53be 4fa2 803d c6c0 5c3d
000002e0: 96cb 5ebe 5958 213c 7f9e 473d 6cd3 4bbe
000002f0: 184c 893e dd84 863e b51b 40bf 1e4a 193f
00000300: 9175 39be 6a65 3abe 6184 ea3b 3c88 833b
00000310: c065 3b3d dfd6 0d3b f70e 10be edc5 173d
00000320: a942 38be 0f49 83be 3c66 72be e968 903d
00000330: 45ac 8abe 47ac 8bbe 4b4c a73e 93c3 04bc
00000340: 4552 88be bdf8 ee3c a224 253b 9388 39be
00000350: 71b4 16be 12dc 6cbe c56b 27be e189 42be
00000360: b7ef b63e aff8 0e3e ca49 42be b5e1 153d
00000370: beee 4bbe 0928 383f c1ea 19be 5e50 2b3c
00000380: ea4e 6ebe 91ae 5b3e e0d2 cf3e 03f6 3d3d
00000390: 1821 68bf db1a 4abe 79f6 38be 38cd d73d
000003a0: e796 503e 5067 913e 4941 673c 3a02 66be
000003b0: 77f3 30be b322 8fbe 7dae 89be cb52 753e
000003c0: bec5 743e 7ee5 b43c ec28 58be 9631 31be
000003d0: a473 6fbe cc50 2fbe 525e 7fbe 1861 8c3e
000003e0: 1207 81be c579 ae3b 4ab1 4bbe f2ff 27be
000003f0: e848 59be 575b 833d 4b3e a43e b8a7 78be
